4. deep_learning/CAE.pth (torch, 47916 bytes, 21 tensors)

enc.conv1.model.0.weight f4 [16, 1, 3, 3]
000000 fb b8 34 be 55 8a 2f 3e 97 8d b6 be cd f0 c4 3b
       -0.1764869 0.17142613 -0.356549 0.006010151
000010 b7 a1 19 3e 5d 7a 3d 3d 98 c2 9f bc 73 e7 dd 3c
       0.15003096 0.046259273 -0.01950197 0.027087903
000020 e7 90 82 be 2c c6 dc 3d 15 ce 89 3e e4 b5 63 3e
       -0.25501177 0.10779986 0.2691504 0.22237355
000030 c1 07 bd 3d a6 33 0c be ef 2a 28 3d bc d8 2d 3d
       0.092299946 -0.13691577 0.04105657 0.042443022
000040 a1 80 b9 be 81 4e e5 3d 21 49 86 3d 88 37 74 3e
       -0.3623095 0.11196614 0.06556917 0.23849308
000050 ba a3 94 be 4d 71 1c 3e d2 23 c0 bd 5b 3c ff 3c
       -0.29031163 0.15277596 -0.09381832 0.03115671
000060 5e 35 0a 3e 75 b9 c1 bd 6f 46 20 be 7b 41 92 be
       0.1349692 -0.09459201 -0.15651868 -0.28565583
000070 5a ce 5b be 42 93 a5 3d 1d f2 92 bd a9 64 51 3d
       -0.21465436 0.08084728 -0.07175086 0.051121388
000080 6d 6a be 3c 28 46 b5 3d c0 33 b5 be fd 06 b4 bc
       0.023244107 0.08851272 -0.35391045 -0.021975989
000090 1c ea 91 be 9a d0 c5 bc fa af 02 3e 78 91 5e 3d
       -0.28498924 -0.02414732 0.12762442 0.05433795
0000a0 a4 64 8b be 09 0c 6a 3e 53 bd 97 3d b3 2c b8 3d
       -0.2722522 0.22856154 0.074091576 0.08992901
0000b0 9f 86 56 3d bb b9 8f 3c 14 f0 74 3d df da 46 3e
       0.05237448 0.017544618 0.05979927 0.1941943
0000c0 6a 23 31 3d e5 75 0b be 5b c4 60 be 29 43 2c be
       0.043246664 -0.13619192 -0.21949904 -0.16822495
0000d0 41 23 3d be 8b 55 1a bc 06 4e 09 3e f4 3f aa 3b
       -0.1847048 -0.009419809 0.1340867 0.005195612
0000e0 ab 67 93 3d 8d 07 87 3c 9d 0b 0d be 85 b5 9f 3d
       0.071975075 0.016483093 -0.13773961 0.07798294
0000f0 47 49 ef 3d a8 66 a0 be f5 7d 38 bd a0 1c 27 be
       0.116838984 -0.3132832 -0.045041997 -0.16319513
000100 e5 db 4e be 78 c2 ab be d5 37 a7 be ea 2f 58 be
       -0.2020107 -0.33546805 -0.32659784 -0.21112028
000110 bf af c1 be 41 c1 85 bd a9 81 34 be f2 04 74 3e
       -0.37829396 -0.06531001 -0.17627586 0.23830011
000120 1e d6 80 be 54 1b 1e bd 75 de ad be 7e 40 f3 bd
       -0.25163358 -0.03860028 -0.33958784 -0.11877535
000130 1b 05 be be de 98 30 be 00 99 81 3e 01 53 f0 bd
       -0.3711327 -0.17245814 0.25312042 -0.11734582
000140 ab 27 9c 3d 3c cc e5 3d 86 d3 3d be 4f 40 bf 3d
       0.076247536 0.11220595 -0.18537721 0.09338438
000150 12 2b 69 3e 64 38 ee 3d fd c2 9c be 32 c5 af be
       0.22770336 0.116318494 -0.30617514 -0.34330136
000160 58 28 26 bd 94 6f 93 be 04 d0 cf be 8b e2 a6 be
       -0.04056582 -0.28796065 -0.4058839 -0.32594714
000170 2d b8 90 be fb 7f 5a 3d 51 b2 66 3e 77 5f bf be
       -0.28265515 0.053344708 0.2252896 -0.3737752
000180 22 4c c4 3c 9b f3 66 3d 16 49 15 be 35 d3 2f be
       0.023962084 0.056384664 -0.14578661 -0.17170413
000190 bc f7 79 be 87 14 a8 be 93 d0 89 be 13 d2 48 be
       -0.2441091 -0.3282816 -0.26916942 -0.19611387
0001a0 13 95 82 3e 72 73 af be 02 7c 58 3c a9 6d 3b 3e
       0.2550436 -0.34267765 0.0132131595 0.18303551
0001b0 f8 3d 0d bd 4e 09 03 3e 7e 60 55 be 96 61 c5 bd
       -0.034482926 0.12796518 -0.2083759 -0.09637754
0001c0 cb 0d 4a be d4 7e db 3d ba d5 9f be 46 68 35 be
       -0.19731824 0.1071755 -0.31217748 -0.17715558
0001d0 a6 18 a7 be 2d 56 1d bb 95 06 1d be e0 fe ac be
       -0.32635993 -0.0024007664 -0.15334542 -0.33788204
0001e0 8d 9f 1f be 3d 3a 50 3e df 87 2c 3e 80 e7 23 be
       -0.15588208 0.20334716 0.16848706 -0.16006279
0001f0 b4 ba da 3d 5d 1a a7 3b af 4a db bc cc cf 68 be
       0.10680142 0.0050995783 -0.02676901 -0.22735518
000200 0f 01 fe 3d 5f 7d 07 bd 2f 42 c2 bd 75 20 c7 be
       0.12402546 -0.033078548 -0.0948528 -0.3889195
000210 93 26 33 be e5 a6 fb 3d 5c 6c 00 3e c5 1a db 3d
       -0.17495184 0.12287692 0.12541336 0.10698465
000220 ba d8 f1 bd b8 6a af 3d d8 67 4f bd 16 7f ab be
       -0.118089154 0.08565277 -0.050636142 -0.33495396
000230 5b af d0 3d a1 3a 47 be 77 c4 c4 3d 8a f9 81 be
       0.101896964 -0.19455959 0.09607785 -0.25385696

enc.conv1.model.0.bias f4 [16]
000000 25 5b c3 bd 1b 7c a7 be c1 1d 8d 3d 0f 3e 3a bc
       -0.09538869 -0.32711872 0.06890441 -0.011367335
000010 24 10 dd 3d f2 83 a0 3e f5 b1 b3 bd 8d 66 cc bd
       0.10794094 0.31350666 -0.08774177 -0.099804975
000020 6a 0c b4 3c 13 af 6a 3d b8 61 aa 3c d7 84 e1 bc
       0.021978576 0.05729587 0.020798549 -0.027529163
000030 92 48 8b be fb dd bd bd 7c 1c 95 be 31 d9 df bd
       -0.27203804 -0.09270855 -0.29123294 -0.10930098

enc.conv1.model.2.weight f4 [16, 16, 3, 3]
000000 12 4d 98 bd bd 9d 85 3b f0 23 dd 3b 32 1f 1c bd
       -0.07436575 0.0040776418 0.006748669 -0.038115688
000010 94 84 ab 3c dc 1e 9d bd f6 03 c5 3c f2 1c 18 3c
       0.020937242 -0.076719016 0.02404974 0.009284245
000020 5b 9f 42 bd 36 4b 8a bd 52 57 38 bd 12 82 07 3d
       -0.047515254 -0.067526266 -0.04500515 0.03308303
000030 9b fb 70 3d 3c b6 86 bd 1c e7 9f 3d 75 50 54 3d
       0.0588337 -0.06577727 0.078077525 0.051834542
000040 3f e4 aa 3c 12 04 95 3d c4 fa 22 3d 50 81 a1 3d
       0.02086079 0.07276167 0.03978993 0.078859925
000050 4b c9 66 bd 33 4d df bc 31 9f 33 3d 66 c4 ab 3d
       -0.05634431 -0.027258491 0.04385299 0.083870694
000060 13 65 3b 3d 62 2e 37 bb 47 a2 3f bc 60 ec 86 bd
       0.04575069 -0.002795123 -0.011696405 -0.06588054
000070 dd 24 9c bc 3e 45 71 bd 36 08 45 3d fc 06 43 3d
       -0.019060547 -0.058903925 0.048103534 0.047614083
000080 68 e9 a8 bc 43 b0 ba bd 2e 2b 62 bc ff b9 73 bc
       -0.02061911 -0.091156505 -0.01380424 -0.014875888
000090 63 3e a0 3d 29 0d 3c bd 8d d2 70 bd a2 b2 fb bc
       0.07824399 -0.045910988 -0.058794547 -0.030724827
0000a0 29 cc c6 bc d1 3d 60 3d 95 c1 09 bc 8d 13 59 3d
       -0.024267273 0.054746453 -0.00840797 0.05299716
0000b0 3a bd 16 3d 1d 72 83 bd 61 f7 02 bd eb 9b c1 3b
       0.036801554 -0.0641825 -0.0319742 0.0059084794
0000c0 2c b1 19 3c 3b 07 27 bb 28 98 95 3d 31 92 e6 bc
       0.00938062 -0.0025486487 0.07304412 -0.028145881
0000d0 95 c3 bf 3d e5 d4 9c 3c 12 e6 85 bd 7e f9 9e bd
       0.09363476 0.019144485 -0.06538023 -0.077624306
0000e0 2a 79 ec bc 7b 35 51 3a b2 92 39 3d 7d 9f 54 3c
       -0.02886637 0.00079806865 0.045305915 0.012977478
0000f0 d4 58 5e bd 4f d7 f0 3c 78 e8 01 3d 82 18 78 3d
       -0.05428393 0.029399542 0.03171584 0.060570247
000100 f7 ad 03 bd 66 b2 9f bd c1 20 e8 3c 1f 23 3c 3d
       -0.032148328 -0.07797699 0.02833593 0.04593193
000110 b3 89 54 3d a2 59 af bd c4 a2 ab bc 8b 0d 27 3c
       0.051889133 -0.08562018 -0.020951636 0.0101961
000120 e6 11 4d bb f1 87 99 3c 16 80 87 bc 48 a1 95 3d
       -0.0031291186 0.01874158 -0.016540568 0.073061526
000130 05 be 17 bd cc 23 cb 3c 58 46 b8 3c 0c 66 57 bc
       -0.03704645 0.024797343 0.02249448 -0.013146888
000140 14 fc 12 bd d6 c6 6b 3d 75 6f 5a bb b1 ed a8 bd
       -0.03588493 0.05756267 -0.0033330594 -0.08248461
000150 eb be 80 3d 44 ff a3 bd ba 39 06 ba e8 4e 9b bd
       0.06286415 -0.080076724 -0.0005120296 -0.075834095
000160 a4 13 3f bd 4f 89 7c 3d 8e 79 3a 3d da 39 2d 3d
       -0.04664959 0.061654385 0.04552608 0.0422915
000170 0f 76 4c 3d 72 50 08 3d 35 99 90 bd fc 73 32 bd
       0.049917277 0.033279844 -0.07060472 -0.043567643
000180 7d ea 15 3d be 3b 0e bd 61 c4 86 bd 0c 5e 8d bd
       0.03660058 -0.034724943 -0.06580425 -0.06902704
000190 15 38 30 bd 4e 8c 85 3c 9a f4 8a bd 4a 76 8f 3c
       -0.043022234 0.016302254 -0.06784935 0.01751246
0001a0 02 8d 92 bc 29 d8 aa bd e1 13 90 3d 91 4b dc 3c
       -0.017889503 -0.083420105 0.070350416 0.026891502
0001b0 60 50 2b bc 65 10 a1 3d d9 b6 a2 3d 1a bf 3d 3d
       -0.010456175 0.07864455 0.07945032 0.046324827
0001c0 a5 2a 94 3d 50 a6 9c 3c ac 56 b0 bc a6 d8 96 bd
       0.07234696 0.019122273 -0.021525703 -0.07365541
0001d0 ec 36 db 3c 14 d8 a5 bd 3e e5 03 3c cb 18 99 bd
       0.026759587 -0.08097854 0.008050261 -0.07475432
0001e0 c2 2a 68 3d 7a dc 0f 3d ec 2d 29 3d 82 54 28 3d
       0.056681402 0.035122372 0.04130356 0.041096218
0001f0 3b 23 9b bd 60 52 ae bd 55 4d 5a bd dc 7f d6 3c
       -0.07575079 -0.085118055 -0.053296406 0.026184015
000200 12 95 29 bd 43 ec 4e 3d 97 38 36 bd ed 63 96 3d
       -0.04140193 0.050518285 -0.044487562 0.07343278
000210 8b e4 9a bc 11 cc c1 3d e5 65 2b bd c1 9a aa 3c
       -0.018907806 0.09462751 -0.04184522 0.020825746
000220 10 d3 12 3d b3 67 fc bc 14 0d f4 bc 8f f3 db bb
       0.035845816 -0.030811166 -0.029791392 -0.006712384
000230 3c 10 a1 bd fc ff 0f bd 00 b9 24 bd 60 a9 01 3a
       -0.078644246 -0.035156235 -0.040215492 0.00049461983
000240 e1 4d e6 bc 28 26 03 3d a3 eb 2f bd a2 a0 76 3d
       -0.028113307 0.03201881 -0.04294933 0.060211785
000250 27 74 5d bc 28 ee ce bd e6 80 e7 3c cf a7 9d 3d
       -0.013516462 -0.101040184 0.028259706 0.076980226
000260 43 48 45 be a3 7c 9e 3b 7f 62 b2 bc 25 e5 05 be
       -0.19265847 0.004836635 -0.021775482 -0.13075693
000270 7a 14 66 3d e2 f3 3c be 6c d9 e9 bd 66 d9 c1 bc
       0.05617187 -0.18452409 -0.11418423 -0.023663234
000280 03 d1 d6 bd 9a 65 56 bd e4 eb cb 3d 9d cc 47 bd
       -0.104890846 -0.05234299 0.09957102 -0.04877912
000290 a4 cd 1c be 6e a6 8c 3c c0 51 a7 3d c7 59 c7 bd
       -0.1531282 0.017169204 0.081698895 -0.097339205
0002a0 3a 6c 9b bd b0 c1 7c bd eb f9 0e be 35 c7 3e bb
       -0.07589002 -0.061708152 -0.13962524 -0.0029110436
0002b0 cd 74 33 bd 9a a4 aa bd a8 9c 5a bd 10 b3 08 be
       -0.04381256 -0.083321765 -0.053372055 -0.13349557
0002c0 52 5e c3 bd 24 91 21 bd 22 70 f0 bd 42 6b 1c be
       -0.095394745 -0.039445058 -0.11740138 -0.1527529
0002d0 f5 65 94 bd a1 bf 0f bd 4c b4 cf bd c9 ef 4e bd
       -0.07246009 -0.03509486 -0.10141811 -0.050521646
0002e0 f5 44 c3 bd 6f 87 3b be bc 9c b6 bd 4c 8b 17 bd
       -0.09534637 -0.18313383 -0.089166135 -0.03699808
0002f0 0c f8 33 be 12 25 9d 3b 4e 5a cd 3c 31 5c 34 bd
       -0.17575091 0.004795679 0.025067475 -0.044033233
000300 bb 3a 86 bd c0 5e 9a 3c 5c 58 18 be d1 30 37 bd
       -0.06554171 0.018844008 -0.14877456 -0.04472429
000310 b7 fe bb bd 86 2d da bd a2 12 f9 3d 01 7c 8f 3d
       -0.091794424 -0.10653214 0.12161757 0.07006074
000320 45 ce d8 bd 8d c4 47 3c c3 5b ea bc 78 f9 fb bd
       -0.10586218 0.012192857 -0.028608209 -0.12303442
000330 bd 67 71 3d 92 a3 25 bd f1 1c 92 bd 32 e7 9b 3d
       0.058936823 -0.040439196 -0.071344264 0.076124564
000340 75 16 d3 bd 00 f0 3d be c8 38 23 3d 53 ba b0 bd
       -0.10307018 -0.18548584 0.039849073 -0.086292885
000350 2f 52 01 be 28 52 8d bc 37 2e 3d be 63 66 13 be
       -0.12629007 -0.01725109 -0.18474661 -0.14394526
000360 50 df 8d 3d be 1b 3b 3d aa a0 cb bd ea 45 0f 3c
       0.06927359 0.045680754 -0.099427536 0.008744696
000370 25 15 5c 3c 0e 3d 96 bd 40 76 0c bd 0b ea 70 bc
       0.013432776 -0.07335864 -0.03429246 -0.014704238
000380 ab a6 f4 bd 8d e1 37 3d 37 9d 83 bc 47 c9 b0 bd
       -0.11945852 0.044892836 -0.016066177 -0.086321406
000390 a0 5a 3d bd 3c 69 34 bd e9 54 33 bb 8c 60 0b bd
       -0.046229005 -0.04404567 -0.0027363843 -0.03402762
0003a0 2b a2 77 bc 60 87 c9 bd 59 2c 12 3d 3a 6f c8 bc
       -0.015114347 -0.09840274 0.035686824 -0.0244671
0003b0 b3 23 92 bd bd 4a 1f 3d aa 07 42 3d 58 4f 31 be
       -0.07135715 0.038889635 0.04737059 -0.17315423
0003c0 3c 76 9f bd 59 32 79 3d e3 0c 02 be 17 c7 b1 bd
       -0.07786223 0.06083903 -0.12700228 -0.086805515
0003d0 c1 ae ab bd 85 a5 96 bd 50 bc 16 3d 19 1c 0e be
       -0.08382941 -0.07355789 0.036800683 -0.13877906
0003e0 27 3c e9 bc d9 6c c2 3b a4 3a f8 bd ba 6f e9 bd
       -0.028471066 0.005933386 -0.1212056 -0.11398263
0003f0 6e a7 32 3d 58 16 6e bc c2 e6 3b 3d ff b7 9f 3d
       0.043616705 -0.014531694 0.045874365 0.07798766

enc.conv1.model.2.bias f4 [16]
000000 e4 6b 0a 3e 5e 16 43 3d 8f d2 6a 3d 4a dd cb bc
       0.1351772 0.047628753 0.05732971 -0.024885792
000010 5b 33 4e 3c d3 cb 93 bd e2 77 58 bd aa 2d 05 3e
       0.012585486 -0.07216611 -0.052848704 0.130057
000020 c3 61 f5 bc 74 88 00 3e 2b 20 25 3e 67 6c 2b bd
       -0.029953843 0.12552053 0.16125552 -0.041851427
000030 21 dc 70 bd 50 13 b5 3d 96 af 96 3d 44 75 9e bc
       -0.05880368 0.08841574 0.07357709 -0.019343026

enc.conv2.model.0.weight f4 [8, 16, 3, 3]
000000 08 29 f8 bd 08 05 d9 3b 19 40 2b 3d fc e6 00 3d
       -0.12117201 0.006622914 0.041809175 0.031470284
000010 0c 7c 70 bd 97 8f 9d 3d 9d 78 e8 bc c2 fa a6 bd
       -0.05871205 0.07693403 -0.028377825 -0.08153297
000020 50 2e 55 bd bb 07 d1 3d db 00 77 3d ac 20 60 3c
       -0.05204612 0.102065526 0.06030355 0.013679665
000030 a9 3f 87 3c f3 b1 dc 3c 8e 80 be bc 9d 40 ee 3d
       0.016509848 0.026940322 -0.023254659 0.11633418
000040 a8 27 59 3d bf 11 31 3d 8b b9 d2 bc d3 b2 82 bd
       0.053016335 0.043229815 -0.02572324 -0.06381764
000050 35 1c e2 3c d9 87 80 3d ba 9c 92 bd 49 86 80 3d
       0.02760134 0.06275911 -0.071587995 0.06275613
000060 9c 96 a7 bd 39 b3 05 bd 48 73 8b bd f2 28 52 bd
       -0.08183023 -0.032641623 -0.068090975 -0.05130858
000070 a0 0f d8 3c fc 09 17 3d 0b fb 02 3c 9b cb 6f 3c
       0.026374638 0.036874756 0.007994424 0.014635946
000080 6d 18 b9 bc a7 a3 e5 3c e8 e1 a9 3d 93 59 7b bc
       -0.022594655 0.028032137 0.08295041 -0.01534118
000090 da 7b ae 3b 32 cb 88 bd ae 62 01 3d 5d a6 a8 bd
       0.005324823 -0.066793814 0.03158825 -0.08234856
0000a0 06 9f 12 bd 9c c8 99 bc 4a 7d b9 bd c1 60 04 3d
       -0.035796188 -0.018772416 -0.090571 0.032318834
0000b0 7c 3a 97 bc af 2e 1e 3d fa f3 04 3d 70 71 87 3d
       -0.018460505 0.03861874 0.032459237 0.06613433
0000c0 8c 00 2c 3d 3c 65 2d bc 70 6d b8 3b b4 dd 03 3d
       0.04199271 -0.010583218 0.0056282803 0.032193854
0000d0 98 21 cb 3c bd 1e 50 3d 38 16 9c bd d3 4a f2 bc
       0.024796292 0.050810564 -0.076214254 -0.029576695
0000e0 60 bb ed 3b 4f 20 4b bd 4f e6 aa bd e7 da 20 3d
       0.007255003 -0.04959136 -0.08344709 0.03927126
0000f0 4e 03 98 3c 8b 43 c1 3c 31 11 62 3d d7 21 38 bd
       0.018556263 0.023591777 0.055192176 -0.044954147
000100 b2 5f 81 3c b9 c0 90 3d 11 8b 44 3d 27 bb 96 3d
       0.015792701 0.07068009 0.047984187 0.07359915
000110 12 f4 84 3d 67 45 ae bd 5b 39 fa 3c 3b e2 fd bc
       0.06491865 -0.08509331 0.030544927 -0.030991664
000120 6f c2 9d bd dd 24 3f 3d 57 61 6e bd 2d cb 47 bd
       -0.07703101 0.046666015 -0.0581983 -0.048777748
000130 7e f8 9a 3d 5c 7b 95 bd 7c 25 8b 3d 1f d0 01 bd
       0.075669274 -0.072989196 0.06794259 -0.03169262
000140 9a dd 6e bd 90 79 4b b8 a1 bf 23 bd 0b aa 72 3d
       -0.058316804 -4.8512185e-05 -0.039977673 0.059244197
000150 a7 85 06 bb 74 82 6c 3c 36 e9 e2 3d 63 12 82 3c
       -0.002052644 0.014435399 0.11079638 0.015877908
000160 03 8d e2 bb c5 9b d6 3d 97 80 96 bb bc 06 27 bd
       -0.0069137826 0.104789294 -0.004592966 -0.040777907
000170 1f 03 34 3d 51 c8 1c bd ff 12 7a 3d 7c 47 d8 3d
       0.04394829 -0.038276974 0.061053272 0.105605096
000180 83 ca 30 3d 72 d6 a2 3d d5 63 a2 3d b7 65 2d 3d
       0.04316188 0.079510584 0.07929198 0.04233333
000190 dd a5 6d bd e4 dc 3e bd 0b 5e d2 bb 46 03 b7 bd
       -0.058019508 -0.046597376 -0.006419902 -0.08936171
0001a0 c9 80 9e 3c c7 b5 3f 3d 9f 7a c9 bc df 04 69 3c
       0.019348519 0.046804216 -0.024594603 0.014222353
0001b0 69 88 95 3d 3f 48 01 bd bf 07 4c bd 87 49 3c bd
       0.07301409 -0.03156304 -0.049812075 -0.04596856
0001c0 dc 6f 2e 3c ea d3 58 3c 9e 9e 3a bd fa 5d 7a 3d
       0.010646787 0.013234118 -0.045561425 0.06112478
0001d0 de ca 03 3c 61 09 bc bd c2 ed 17 3d 43 b4 b2 bd
       0.008043973 -0.091814764 0.037091978 -0.087257884
0001e0 95 b1 c3 bc a4 99 68 3d bb 47 52 bd 11 25 e5 b9
       -0.023888389 0.056787148 -0.05133794 -0.000437059
0001f0 ec fb 46 3d d8 97 87 3d a2 01 da bd 86 cd 38 ba
       0.048580095 0.06620759 -0.10644843 -0.00070496683
000200 78 a2 65 3d c3 7c ea bb 48 68 35 3d 48 a1 c1 bc
       0.056063145 -0.007155986 0.044288903 -0.023636475
000210 a6 69 36 3c 6a d6 82 bd 9c 36 9d bb 10 d5 5f bc
       0.011133587 -0.063885525 -0.0047977697 -0.013661638
000220 38 fe 03 bc 53 1d 7d 3c 62 e5 9d bd 2c 55 20 bd
       -0.008056216 0.015448886 -0.07709767 -0.039143726
000230 48 08 ec 3c 91 a6 47 3c 61 7c cf bc 7a 8e 81 3c
       0.028812543 0.012185709 -0.025327863 0.015815008
000240 d4 77 a5 3c 30 6a 6f bd d6 00 9d 3d bf ce 8e 3d
       0.02019874 -0.058450878 0.07666175 0.069730274
000250 5a ec a5 3d eb c6 07 3e 68 16 f9 3c a8 67 c9 3d
       0.08101721 0.13259475 0.030406192 0.09834224
000260 03 50 22 3d 34 7c ee bc 56 4c 88 bd 54 8d 1c 3c
       0.039627086 -0.029111959 -0.06655185 0.00955518
000270 d4 ea 93 3d 13 1d 5a bd dd 21 aa 3d 2a b7 28 3d
       0.07222524 -0.053250384 0.0830724 0.041190304
000280 1b 81 1d 3d 7f 20 f5 bb 89 3d e8 3c f2 ee a1 3b
       0.038453203 -0.0074806805 0.028349655 0.0049418146
000290 8f de ae 3c 6b 4c 9a 3d d9 53 91 3d c2 b6 df 3d
       0.021346359 0.07534107 0.07096071 0.1092353
0002a0 79 d8 db 3b c6 6c 82 bb cf 73 91 bd c2 c2 9e ba
       0.006709155 -0.003980252 -0.07102167 -0.0012112486
0002b0 26 87 89 bd c3 5b d1 3c f1 db 18 3d 08 6c 24 bd
       -0.06715231 0.02555645 0.037319127 -0.04014209
0002c0 47 6e 93 3b e2 c2 4e bd 5a e7 e7 3c 1d 3d 47 3d
       0.00449923 -0.050478823 0.02830856 0.048642267
0002d0 14 06 9c bc 95 e9 18 bd dc a5 96 3d e0 ae cf 3c
       -0.019045867 -0.037332136 0.07355854 0.025351942
0002e0 6f 60 93 bc 39 c8 75 3c 1c 29 0a 3d a4 c2 60 3d
       -0.017990319 0.01500135 0.03373061 0.054873124
0002f0 42 67 b2 bc e9 25 7e bd f5 e7 96 3d 64 50 66 3c
       -0.021777753 -0.062047873 0.07368461 0.014057253
000300 96 43 26 3d ac d0 8b 3d b5 10 6d bc 3e 60 78 bd
       0.0405918 0.068269104 -0.014469315 -0.06063866
000310 62 12 ec bc 09 8d eb 3c 14 5c ac 3d 31 72 02 3d
       -0.02881736 0.028753774 0.08416 0.031847183
000320 b5 12 4d 3d b2 ba 0b bc 25 c5 28 3d 82 44 75 3c
       0.05006667 -0.008528398 0.041203637 0.014969947
000330 f0 b5 4b 3b f9 8d 16 bd ac 1b 47 bd a3 b9 c7 3d
       0.0031083785 -0.03675649 -0.048610374 0.09752204
000340 fc 5c 82 bb f3 6b 37 3d 37 df 06 bd 53 f6 e0 3b
       -0.0039783698 0.044780683 -0.032927718 0.0068653016
000350 46 9b e5 3d ad f2 3d 3d b4 b0 05 bd 5d f0 c9 3d
       0.11211257 0.04637401 -0.03263922 0.09860299
000360 e3 9d 35 bb 59 c0 16 3d d1 ff 0a 3d 9f d9 a1 3c
       -0.0027712516 0.03680453 0.03393537 0.01975709
000370 28 d5 8f bc 5b 79 3f 3d 1b 20 6b 3d b3 db 3b 3d
       -0.017557696 0.046746593 0.057403665 0.04586382
000380 9d 20 04 3d c8 80 f2 3c da 4f aa bc b2 3e 0d 3e
       0.032257665 0.029602423 -0.02079003 0.13793448
000390 85 ba f7 3a ea 35 62 3d 32 a2 15 3e 2f 7d b8 3b
       0.0018900192 0.055227198 0.14612654 0.0056301574
0003a0 4d 2c 16 3d 3f 1c 6c 3d 78 74 78 3d 47 4e d6 3a
       0.036663342 0.057644125 0.06065795 0.0016350233
0003b0 20 98 1c 3e b2 75 86 3d f4 08 c0 3d 0d 49 0e 3e
       0.15292406 0.06565417 0.09376708 0.13895054
0003c0 a2 dd 0b 3d 38 b2 72 bc f1 92 12 3e 29 69 a2 bc
       0.034146912 -0.0148129985 0.14313866 -0.019825535
0003d0 90 47 8c 3d 92 a2 2f 3d 53 bb 5b 3d 64 c2 aa bd
       0.06849587 0.04287965 0.053645443 -0.08337858
0003e0 26 12 12 3c 5d 6e 86 3d 28 de c9 bc 1a a6 00 3c
       0.00891546 0.06564019 -0.024642065 0.007852102
0003f0 73 49 10 3d 34 57 b5 ba 86 d3 dc 3c 6a 35 aa bb
       0.035226297 -0.0013835193 0.026956331 -0.0051943557

enc.conv2.model.0.bias f4 [8]
000000 84 87 41 3e aa 94 ba 3d 00 2e e6 3d 65 12 77 bd
       0.18899351 0.09110387 0.112392426 -0.060320277
000010 34 c3 bd 3b 66 77 4f 3e 66 5e af 3d 15 7e 6b bd
       0.0057910923 0.2026039 0.08562927 -0.057493288

enc.conv2.model.2.weight f4 [8, 8, 3, 3]
000000 b5 25 1a 3e 71 5e a5 3d fd 1b 98 bb 02 e3 48 3e
       0.15053447 0.08074654 -0.0046420083 0.19617847
000010 0b 0d 9b bc 57 7a a0 bc b9 b1 83 be 2f d5 a8 be
       -0.018927118 -0.019589586 -0.2572153 -0.32975146
000020 f4 e1 a6 be 42 f4 90 3d 0f 76 19 3d 59 63 f0 3c
       -0.32594264 0.070778385 0.037466105 0.029344248
000030 71 e8 3f 3e 5d 90 5e bd 7b 84 29 3d 10 9b 7d be
       0.18741013 -0.054336894 0.04138611 -0.24766183
000040 09 88 a0 be 00 1a 31 be c4 b9 9b 3d a7 c7 77 3d
       -0.31353787 -0.17295074 0.07603791 0.060493138
000050 69 a0 ad bd 19 43 2c 3e 36 2a 9d 3d c6 e9 68 3d
       -0.084778614 0.1682247 0.07674067 0.05686357
000060 a7 fb 80 be de a9 ae be f1 73 52 be 17 c7 db 3d
       -0.25191996 -0.34113973 -0.2055204 0.10731333
000070 b3 61 c2 bd 29 e3 a1 bd 21 87 ae 3d dc 15 c4 bc
       -0.09491291 -0.079046555 0.085218675 -0.023936205
000080 ae eb 39 3d dc 64 c1 3d ea 3c 8f 3d 46 b8 e2 bd
       0.045390777 0.094430655 0.0699404 -0.110703036
000090 61 60 ab bd 3e e2 de bd a7 cf b2 bd 8b a3 91 b9
       -0.08367992 -0.10882996 -0.08731013 -0.00027778404
0000a0 96 70 6d bd 4f d5 33 3d 9f c6 db bb 92 33 32 bd
       -0.0579687 0.0439046 -0.006707027 -0.043506213
0000b0 6c 5a 47 bd 0a 06 84 3e c1 6b 4e 3d dd 0d 20 3e
       -0.048670217 0.25785857 0.05039573 0.15630288
0000c0 09 d5 a9 3e 7e fc 34 3e 9d 02 2a 3e 32 d4 99 be
       0.33170345 0.17674443 0.1660256 -0.30044705
0000d0 f8 b1 d9 be 17 e2 50 be 7b a3 30 3e d7 e7 f1 3d
       -0.42518592 -0.20398746 0.17249863 0.11811798
0000e0 d8 03 40 3d 57 48 c0 bb 9d 56 6f bd 4a b2 75 3b
       0.046878666 -0.0058679986 -0.05843221 0.0037490302
0000f0 82 64 a6 be 0e 84 58 be 18 1a 44 be 6d 55 e5 bb
       -0.32498556 -0.21144125 -0.19150579 -0.006998709
000100 cb 86 90 bd 1c a2 c2 3d 21 3c 82 3d 39 7e 85 bd
       -0.0705696 0.09503576 0.06359125 -0.06518216
000110 13 a5 bd bd df 9f 37 3d 7d f0 72 ba cd 68 a8 3d
       -0.09260001 0.0448302 -0.0009267403 0.08223114
000120 04 fa 7f 3d 9d 10 90 bd 06 da b2 bd 51 25 4c bd
       0.062494293 -0.07034419 -0.08732991 -0.049840275
000130 e7 38 8a 3c d3 ac 09 3c 84 e2 ea bd eb 53 b6 bd
       0.016872836 0.008403021 -0.11468986 -0.08902725
000140 07 97 ff bd 7e 03 fc bd ff ef 32 bd 0b 77 45 bb
       -0.12479978 -0.123053536 -0.04368591 -0.003013077
000150 db f0 27 3b ff 45 28 3d 46 f2 df bd 71 4a 8a bc
       0.0025625739 0.04108238 -0.10934882 -0.0168812
000160 91 26 b8 bd 5b d8 8a bb 0f 09 ba bd 20 bc 48 3d
       -0.08991731 -0.0042372174 -0.09083759 0.049007535
000170 c6 c9 0b be 8b c4 e0 3c 71 f7 06 be 68 93 78 bd
       -0.13651189 0.027437469 -0.13180329 -0.060687453
000180 85 65 fa bd 36 27 7d bc e3 2d ee bc 1e 63 34 bd
       -0.122263946 -0.015451243 -0.029074615 -0.044039838
000190 e2 41 ce bd 02 e8 37 3d b9 82 81 bb 6a d9 52 3d
       -0.1007116 0.044898994 -0.003952351 0.051476873
0001a0 4d 9e b3 bd 84 c5 89 bd e8 4c 82 bd 83 80 ce bd
       -0.08770428 -0.06727126 -0.06362325 -0.100831054
0001b0 5a cf ab 3b 2e c4 4a bd 94 f2 b7 3d ef 80 90 bc
       0.005243224 -0.049503498 0.08981815 -0.017639605
0001c0 c7 a9 2a bd 4d 8c 97 bc e4 c1 ba 3d 84 92 ea bd
       -0.04166582 -0.018499518 0.09119013 -0.11453727
0001d0 ae df f9 bd b8 1b dd bd 87 68 48 3d 5d 73 bf bd
       -0.12200867 -0.107963026 0.04892781 -0.09348176
0001e0 c7 56 27 bd 8b b5 84 bd 51 70 ce 3c 79 67 b0 3d
       -0.04085424 -0.06479939 0.025200041 0.08613486
0001f0 26 00 86 bd 4f 81 c9 bd 10 31 d6 bd a9 f1 cd bd
       -0.06542997 -0.09839117 -0.10458577 -0.10055859
000200 a1 a7 ff 3c 25 b0 aa 3d e6 f1 ab 3d 1c 72 fa bd
       0.031207861 0.08334378 0.08395748 -0.12228796
000210 f8 ed 81 bb 05 ce 5c bd c4 9a 0f 3d b6 ba 44 bd
       -0.0039651357 -0.053907413 0.035059705 -0.048029624
000220 d5 bc 78 bd 6c dd 57 bd ae e2 ee bd 32 a5 80 bd
       -0.06072696 -0.0527014 -0.116643295 -0.062815085
000230 f9 1f 65 3d d2 ed 7d bd b7 69 59 bd f5 10 6d 3d
       0.055938695 -0.06199438 -0.053079333 0.0578775
000240 f5 59 d8 3c 85 1b 33 bd c0 98 45 3b bc 19 90 bd
       0.026410082 -0.043727417 0.003015086 -0.070361584
000250 0b a4 67 3d fd 7f e6 bd 48 11 2d bd de df 25 bd
       0.056552928 -0.112548806 -0.04225281 -0.0404967
000260 3d 9e 8e 3d 7d eb 60 bc ce be 10 bd 7f a6 ef 3d
       0.06963775 -0.01372802 -0.035338216 0.117016785
000270 84 49 93 3c f9 37 97 3d 4a b1 aa bd 8c 3c cf bc
       0.01797939 0.07383723 -0.083345965 -0.025297426
000280 f4 91 b4 bc b4 2a f3 bc c4 67 da bd 13 8a 7c bd
       -0.022042252 -0.029683448 -0.10664323 -0.061655115
000290 12 97 49 bd 60 f6 a9 bc 93 af d1 bd f5 87 e7 3d
       -0.049216338 -0.020747364 -0.10238566 0.113052286
0002a0 10 c0 dc 3b db 4e 81 3d 66 8c 39 bd 00 84 ad bc
       0.006736763 0.063138686 -0.04529991 -0.021181107
0002b0 5f 6a b2 3d 2c 96 11 bd 5c 9c c6 bd 93 6d bf 3d
       0.08711695 -0.035543606 -0.09697792 0.093470715
0002c0 28 32 d3 bc 52 f3 1a bd 3b f2 c0 bd 28 50 19 3c
       -0.025780752 -0.037829705 -0.09421202 0.00935749
0002d0 2c 27 c9 bc 80 c9 b7 3a e0 3f 97 bc d2 de 06 3d
       -0.024554811 0.0014021844 -0.018463075 0.03292734
0002e0 80 52 2f bd 7a a6 33 bd 29 a3 9e bd 50 03 aa bd
       -0.042803288 -0.043859936 -0.07745964 -0.08301413
0002f0 d6 7c 9a bd 2f 8f 41 bb 0f 6f 06 3d 7c 77 8b 3c
       -0.07543342 -0.0029534807 0.032820757 0.017024748
000300 18 31 e1 3d 92 ed 7d 3d 0b ea c9 3d 14 00 ee 3c
       0.10995692 0.061994143 0.09859093 0.029052772
000310 78 d6 13 3c 44 a0 9d bd 22 e7 7c 3d 9b 4e d8 3c
       0.009023301 -0.07696584 0.061743863 0.02640467
000320 cc ca c6 3c fb e7 8b bd 5a 02 a7 3c 5c cc d1 bc
       0.024266623 -0.06831356 0.020386863 -0.025610141
000330 d2 ec 9d bd 25 58 aa bd 40 26 47 bd 6c 99 10 bd
       -0.077111855 -0.083175935 -0.048620462 -0.035302565
000340 5e 43 4b bd 37 f2 9e 3d 42 5a 40 3d 51 3f a4 bd
       -0.049624793 0.077610426 0.046961077 -0.08019889
000350 e4 85 1f bd 0f 37 ae bd 7a 3e 6b 3d 0a b5 4c bd
       -0.038946047 -0.08506595 0.05743263 -0.04997734
000360 03 7c ad bc ca 42 f2 bd a0 a0 ad 3d fa 4b fb bb
       -0.021177297 -0.11829145 0.084779024 -0.007668969
000370 cc a5 ad bd a9 12 a2 bd 16 6f b9 bd 1c 49 00 3d
       -0.08478889 -0.079137154 -0.09054391 0.031319723
000380 fc 52 eb bd d1 34 8e 3d 00 49 18 bc e6 ab a9 3b
       -0.114904374 0.06943668 -0.009294748 0.0051779626
000390 ab 09 b1 3a b0 e4 bb bc 6f 53 d5 bd 7b c4 dd 3a
       0.001350691 -0.022936195 -0.10416304 0.0016919518
0003a0 be 2f f7 bc 21 e8 cf 3c 3a dc ad bd 02 6f f5 bd
       -0.030174132 0.025379242 -0.084892705 -0.11984064
0003b0 cb 3c 52 3d ee 69 93 bc df bf d7 bd f2 27 b0 bd
       0.051327508 -0.017994847 -0.105346434 -0.08601369
0003c0 29 28 65 3d c3 67 76 3d 61 06 4d 3d 60 25 b8 3b
       0.055946503 0.06015755 0.05005491 0.00561969
0003d0 b4 5d 3b bd 8d f1 b8 3d 92 0e 2c 3d b0 b7 53 bc
       -0.04574366 0.09030447 0.042006083 -0.0129222125
0003e0 88 86 4a bd 1e 99 15 3d 19 29 e0 3d cb bd a6 3d
       -0.049444705 0.036522977 0.10945339 0.08141669
0003f0 c1 78 2b 3d 8f 2c ce bd ec 0d d6 3d 1f b8 dc bd
       0.041863207 -0.100670926 0.10451874 -0.10777306

enc.conv2.model.2.bias f4 [8]
000000 a0 c9 91 3d 81 b0 8d 3d 71 6e 04 be b9 2f dc bb
       0.07118535 0.06918431 -0.12932755 -0.006719556
000010 86 e3 85 3a 4b 25 b7 3e 62 a0 0c bd d0 84 c1 3e
       0.0010214902 0.3577064 -0.03433264 0.3779664

dec.conv1.model.0.weight f4 [8, 8, 3, 3]
000000 bd 98 cc 3d 36 3e f0 bd 2c 3c 10 bd ab 8b e3 3d
       0.0999007 -0.11730616 -0.035213634 0.11110624
000010 dd 90 77 bd fd 3c 99 3d 5e c7 1b 3d 66 fb e6 bd
       -0.060440887 0.07482336 0.03803193 -0.11278419
000020 6d e9 ae bd 62 2d 9a bd 73 bd 86 bd a1 55 80 3d
       -0.08540616 -0.07528187 -0.06579103 0.062663324
000030 46 95 5d 3d 10 5e 4a bc af bc d7 3d 80 f8 31 ba
       0.054097436 -0.012351528 0.105340354 -0.00067890435
000040 4f 5c ca bd 62 7e 13 3d 72 64 34 3d 24 e3 4f bd
       -0.09880888 0.0360092 0.044041105 -0.050753728
000050 3a 1c 7e 3d 60 79 cb bd ad 72 7d bd b8 5f 0f 3c
       0.062038638 -0.0993526 -0.06187694 0.0087508485
000060 78 e7 32 bd 66 00 c0 bd d4 a7 00 bd 2a 4c 08 3d
       -0.043677777 -0.09375076 -0.031410053 0.03327576
000070 b2 4c be bd 5d 5b 91 3d c3 f1 a2 3d de 58 76 bd
       -0.09291972 0.07097504 0.07956269 -0.060143344
000080 55 6f e8 bd fa de 2d 3d b8 ef 43 3c 43 9a 81 3d
       -0.1134936 0.042448975 0.011959009 0.06328251
000090 26 27 93 bd 98 67 fb bc 02 56 3e bd 04 d4 9b bc
       -0.07185201 -0.030689046 -0.046468742 -0.019021995
0000a0 14 15 b7 3c ea 14 2d bd 97 99 84 bd 78 69 7b 3c
       0.022348918 -0.042256273 -0.064746074 0.01534497
0000b0 da a6 3d bd ac 0a c5 3c f6 36 4a bd 70 25 f8 bc
       -0.0463017 0.02405294 -0.04936882 -0.03029129
0000c0 f7 98 e9 bd 91 c0 d6 bd 49 9e 86 3d be 3a 3c 3d
       -0.11406129 -0.10485948 0.06573159 0.04595446
0000d0 92 8d 8c bd 3d ca de bd 19 83 d5 3d 69 b4 dc bd
       -0.0686294 -0.10878418 0.104253955 -0.10776598
0000e0 02 ba 60 3d 00 05 da bc 00 8f dc b9 8a 6d 08 bd
       0.05486489 -0.026613712 -0.00042068213 -0.03330759
0000f0 d8 f0 09 3c d7 3f ab 3d 43 20 89 3d a5 a1 ef 3d
       0.008419238 0.08361786 0.066956066 0.11700753
000100 80 51 f0 bd 06 41 74 3d ec f6 90 bd 18 c2 4e 3c
       -0.11734295 0.059632324 -0.070783466 0.012619518
000110 a0 35 8f bb 20 87 45 bd ba 07 4b 3d 83 9f b0 3d
       -0.0043704063 -0.04822457 0.049567915 0.086241744
000120 55 92 59 bd c5 0e 07 3e 4d 93 e8 3d 1c e6 0c 3e
       -0.05311807 0.13189228 0.113562204 0.13759655
000130 3f e4 31 3e 1b 07 04 3e 48 28 ed bc 32 18 52 3c
       0.17372225 0.12893336 -0.028949872 0.012823151
000140 a5 b4 99 bd 51 ac 1e bd 35 18 38 bd cb b6 fd bb
       -0.07505158 -0.038738552 -0.04494496 -0.007742738
000150 ab 5a b2 bc 34 88 c1 3d 4f 8e de bd 5d 62 86 bc
       -0.02177175 0.09449807 -0.10866987 -0.016404325
000160 95 13 8b 3d a5 33 23 3d 10 ee b0 bb ba e1 02 bd
       0.06790844 0.039844174 -0.005399473 -0.03195355
000170 3b 14 a9 3d d0 b3 a5 bd 02 72 70 bd f0 4a 95 3c
       0.08255812 -0.08090937 -0.058702476 0.01822421
000180 67 72 d9 3d e2 08 8f bd a1 4c c2 bd fc 03 da 3c
       0.10617524 -0.06984116 -0.09487272 0.026613228
000190 c5 1d 77 bd 41 d2 ee bd 03 b1 73 bc 44 a0 ca 3c
       -0.060331125 -0.116611965 -0.014873746 0.024734624
0001a0 4f 60 16 bc a1 4a a7 bd fd 4f 9f 3d c0 49 81 bd
       -0.009178235 -0.08168531 0.077789284 -0.06312895
0001b0 b0 95 05 be b7 59 0a 3e 46 eb 4a 3d e2 78 53 be
       -0.13045382 0.13510786 0.04954078 -0.20651582
0001c0 c8 f2 a7 3d 45 5a 09 3e 47 99 b2 be 1b ca 34 3d
       0.08200604 0.13413341 -0.34882566 0.044138055
0001d0 17 a5 1e bc a0 9a 3a 3e 08 1d b7 3c d7 64 f5 bd
       -0.009682915 0.18223047 0.02235271 -0.11982124
0001e0 79 01 f8 3d 1a 65 cf bc 65 4a d7 bd fb 75 59 3b
       0.12109656 -0.025316764 -0.105122365 0.0033181894
0001f0 74 29 ee bc d1 fb 83 be e9 54 7a bd fc 0e 8e 3c
       -0.0290725 -0.25778058 -0.061116133 0.01734113
000200 1f bf dc 3d 79 4c 7c bd cf 54 96 3d 88 d8 47 3c
       0.10778641 -0.061596368 0.07340395 0.012197621
000210 7f e2 c3 bd f8 a5 76 bd c9 ff 86 3d e2 24 37 3e
       -0.09564685 -0.060216874 0.06591756 0.17885163
000220 26 87 41 3d ff f4 0d be 3b e2 56 3d bf c5 9d bd
       0.04724803 -0.1386299 0.052461844 -0.07703733
000230 6b 4f 90 be f2 dd 14 3e 00 5b e9 3a e6 14 85 be
       -0.2818559 0.1453779 0.0017803609 -0.25992507
000240 7e bd 95 bd 71 b9 68 bd b6 f5 75 bc d4 10 21 be
       -0.073115334 -0.056817476 -0.015012195 -0.15729076
000250 f8 36 26 bd 47 b0 ca ba bb fa 70 3e 9c f1 6e 3e
       -0.040579766 -0.0015463912 0.23533146 0.23334354
000260 a9 a3 a1 3d 8c cd d5 3c 30 07 5b bd a5 9c 77 bc
       0.07892544 0.026098989 -0.05347365 -0.015113031
000270 46 d1 8b 3c 56 bf b1 3d b7 20 24 3d 45 34 74 bd
       0.017067563 0.086790726 0.04007026 -0.05962016
000280 22 42 b6 bd 0e 8a 01 3e 3a e7 31 3d a3 86 c6 3d
       -0.088993326 0.1265032 0.043433405 0.09693649
000290 54 11 a4 bd 5c 13 b9 bc 7e 19 b8 bd 54 f1 0f bc
       -0.080111176 -0.02259224 -0.08989237 -0.008785564
0002a0 ab 1e ec 3d ee b2 2f 3d b7 a3 8d bd cf 81 ea 3d
       0.11529287 0.04289525 -0.06915992 0.1145054
0002b0 fd 63 48 3d 3a 92 97 3d ee ae 1f bd 01 fd a9 bc
       0.04892348 0.074009374 -0.038985185 -0.020750524
0002c0 fe 5b 30 3d 70 66 58 3d 30 12 a9 bc fb 70 74 3d
       0.04305648 0.052832067 -0.020638555 0.05967806
0002d0 e3 9e 6b 3d aa e3 89 be de 2c d6 bd ef c7 c9 3d
       0.057524573 -0.26931506 -0.104577765 0.098525874
0002e0 1d c2 30 be 62 df 1d be af a7 56 3e 85 43 80 3d
       -0.17261548 -0.15417245 0.20962404 0.06262878
0002f0 cc 88 d1 bd 3b 5c 17 3e 21 ed e5 3d 06 50 3c bd
       -0.1023117 0.14781277 0.112268694 -0.045974754
000300 50 dd 4b 3e c4 65 24 bd 76 a2 bc 3d 3e 3e 9a 3d
       0.19908643 -0.040136114 0.092106745 0.07531403
000310 3e 46 d2 bd 12 c9 51 3c a0 48 b8 bc 80 5a 63 ba
       -0.10267304 0.012804287 -0.022495568 -0.00086728483
000320 f5 23 a8 3d 44 9d eb 3c 56 dc 34 bd 7e cc 15 bd
       0.08209983 0.028761514 -0.04415544 -0.036571972
000330 cd 8a b9 bd 7c bf c5 bd d8 20 5a 3c 42 5f 89 3d
       -0.09059677 -0.09655663 0.013313495 0.06707622
000340 c4 e7 fd 3d 97 41 3a 3e 6d 4e c3 bb e0 76 f0 3b
       0.123977214 0.18189083 -0.005960277 0.0073383898
000350 cf 1c 92 bd 8a 5e 03 3e d3 c5 f6 bd 3f 53 d9 bb
       -0.07134401 0.12829033 -0.12049451 -0.006632238
000360 84 63 95 bd cf 0c f7 bd f8 36 55 bd b3 d4 8f bd
       -0.07294372 -0.1206299 -0.052054375 -0.07022991
000370 b9 87 fa bd 9a d2 3c be 90 df 3a 3e c9 53 5d 3d
       -0.12232918 -0.18439713 0.18249345 0.054034982
000380 4e 46 ec bc 7f 58 dc 3d 2c b5 ff bd a0 34 3d 3c
       -0.028842118 0.10759067 -0.12485728 0.011548191
000390 77 79 8c 3d 79 3d 12 3d fa a5 2b 3b 15 35 cd 3c
       0.06859105 0.035703156 0.002619146 0.025049726
0003a0 68 85 1a 3d d5 e4 36 bd 32 7a b7 bd e4 eb b6 bd
       0.037724882 -0.044651825 -0.08958854 -0.08931711
0003b0 eb 52 93 bd 51 5b dd bd 3f 36 a9 3b 46 dc e2 3d
       -0.0719355 -0.10808433 0.0051639373 0.1107717
0003c0 2a 22 4b bd 77 94 8e 3d 2e 90 2d 3d f5 bb 66 bd
       -0.04959313 0.06961911 0.04237383 -0.056331594
0003d0 fe 1a 12 3e e1 c3 d4 3d ad d5 7f ba cd 77 34 3d
       0.14268109 0.103889234 -0.0009759318 0.044059563
0003e0 bd af 21 bd f3 4d 20 bd fd 39 8e bd ec ff 09 3e
       -0.039474238 -0.03913684 -0.06944654 0.13476533
0003f0 9d 34 0c 3d be cf c2 bd f2 5a cf 3c 43 90 fb 3d
       0.034229863 -0.0951228 0.02531192 0.12283375

dec.conv1.model.0.bias f4 [8]
000000 c2 d0 41 bd 2e 72 f3 3d 53 0a fc 3d 50 62 36 bd
       -0.047318228 0.118870124 0.12306657 -0.04452735
000010 cb 1a 97 bd 0d ff aa bd ec 2c 1a 3d ed 4f 90 bd
       -0.07378157 -0.08349428 0.037640497 -0.07046495

dec.conv1.model.2.weight f4 [8, 8, 3, 3]
000000 83 e4 cb 3d f0 57 5a bd 92 61 3d bd ed 4a e4 3d
       0.099556945 -0.05330652 -0.04623563 0.111471035
000010 d2 80 1a 3d 7f 56 d9 3d 6b c9 94 3d d9 cd ca 3d
       0.03772051 0.10612201 0.0726498 0.099025436
000020 ca 04 f0 bd 0c 61 0b bd 17 0e 63 be d7 d8 eb bd
       -0.117196634 -0.034028098 -0.22173344 -0.11515968
000030 0e 54 61 bc 0f f8 9c bd a0 4e 08 be 8a 86 53 3e
       -0.01375295 -0.07664501 -0.13311243 0.20656791
000040 f1 b8 a7 3c ec ca ef bb 03 33 8d 3e 59 2d 3e 3e
       0.02047393 -0.0073178913 0.2757798 0.18571986
000050 0e 4d 93 3d 23 cf 9a 3d be 24 d8 3d 2f b7 b0 bd
       0.071924314 0.075590394 0.10553883 -0.086286895
000060 89 fb ae 3c bb cc 29 3c 31 0e 4b bd 6b 9e e8 3d
       0.021360176 0.010363753 -0.04957408 0.11358341
000070 b9 2d bd 3d 44 e0 cc 3d 71 4a b1 3d 33 7b bc 3d
       0.092372365 0.10003713 0.08656777 0.09203186
000080 f4 9e df bc a7 23 0d 3c ad fa 90 3d 3a 5d 53 be
       -0.027297474 0.008614457 0.070790626 -0.20641032
000090 d9 c9 c5 3d 76 3f 3c bd 8c 08 f7 3c 41 4d ed 3d
       0.0965764 -0.04595896 0.030155443 0.11587001
0000a0 d6 f3 9a bd f4 c4 53 3d fe a1 de bd 40 1e d5 bd
       -0.07566039 0.0517015 -0.10870741 -0.1040616
0000b0 4c 9e bd bd d6 d1 4b 3d c0 f6 fa bb 80 a5 0f bc
       -0.09258708 0.049760662 -0.0076588094 -0.008767486
0000c0 80 50 80 bd 3d 0f cc bd f3 4d a3 3d d7 3f 7f bd
       -0.06265354 -0.09963844 0.07973852 -0.06231674
0000d0 23 d8 d7 bd bc 3a 5f bd 58 5a f7 3c b0 2c 18 be
       -0.10539272 -0.054499373 0.030194446 -0.14860797
0000e0 2c 86 b0 bc 19 ab 21 3d 71 87 ad bc 9d f6 ae be
       -0.021548353 0.039469812 -0.021182748 -0.34172526
0000f0 de 62 52 3e 28 4c aa bd 68 f4 87 be 80 fc 66 bb
       0.20545527 -0.08315307 -0.26553655 -0.0035245717
000100 10 64 c8 bc e6 04 82 bd 60 5f 26 bb 14 4d c8 bd
       -0.024461776 -0.063485906 -0.0025386438 -0.097803265
000110 b0 a4 60 bd 59 f0 d9 3d 16 f6 b1 bd 9b 2f f9 3c
       -0.05484456 0.10641546 -0.08689515 0.030418208
000120 0f 11 8e bd c0 21 84 bd 6c 0d 87 bd 7a 62 7a 3d
       -0.069368474 -0.0645175 -0.06594357 0.06112907
000130 60 a0 97 3b f6 d9 bd bd e8 38 ad bd 4a e2 43 3d
       0.0046272725 -0.092700884 -0.0845812 0.047823228
000140 97 c2 90 bd 9e 69 0e be 9c f3 3b be f5 09 06 bd
       -0.07068365 -0.13907477 -0.18354648 -0.03272434
000150 9a 9a 19 3e fc 27 65 be bd 6d ae bc da aa c8 bc
       0.15000382 -0.22378534 -0.021292562 -0.02449553
000160 c4 ad 5d be 4f 31 50 3d 79 74 fb 3d 9c 81 8a 3d
       -0.21648318 0.050828274 0.12278075 0.06763002
000170 48 11 da bd 38 f5 09 3e e6 6b 97 3d 23 6d 54 3c
       -0.106478274 0.1347245 0.07393627 0.012965473
000180 b5 77 dd 3d be 47 fd bd ca b6 a2 bd 8e fc 7c bd
       0.10813848 -0.12367199 -0.079450205 -0.061764292
000190 38 d2 81 bd 55 d4 06 be 5d 80 0f 3e 29 eb 58 3d
       -0.06338924 -0.13166936 0.1401381 0.05295864
0001a0 8d a6 07 be 55 19 45 3e d8 ad c8 bd 2b e3 10 3c
       -0.13247128 0.19247945 -0.09798783 0.008843224
0001b0 60 c0 23 bb ef 75 b5 bd 40 00 3b 3b f5 ee d2 3d
       -0.002498649 -0.08860385 0.0028534085 0.10299484
0001c0 8a e2 69 3d f4 c2 4a bd 04 ba 50 bd fd 03 d3 bd
       0.05710081 -0.049502328 -0.05095865 -0.10303495
0001d0 d0 5c 80 3b 16 0e 88 bd 74 06 93 bd cf a2 e1 bd
       0.003917314 -0.06643312 -0.07178965 -0.110173814
0001e0 94 f3 c7 bc 42 ef ac bd 10 4a b3 bc f9 d4 c8 3d
       -0.02440814 -0.08444072 -0.021885902 0.09806246
0001f0 fc 99 86 3c 82 30 cc bd aa 71 0b bc f9 61 ad be
       0.016430847 -0.0997019 -0.008510986 -0.3386381
000200 a2 16 1f be c3 10 52 3e 09 16 e9 bd 4b ab 56 be
       -0.15535977 0.20514207 -0.11381156 -0.2096378
000210 1d a7 57 3e 99 71 09 be 34 21 78 be 7e 53 13 3d
       0.21059842 -0.1342224 -0.24231416 0.035968296
000220 86 32 0e 3d fc cb ca bd 9d 11 69 bd c6 02 89 bd
       0.03471615 -0.09902188 -0.056901563 -0.06689982
000230 a2 f2 9b bd af a0 b7 3d 38 8c c1 bd 5b 6a b2 bd
       -0.07614638 0.08966195 -0.09450573 -0.08711692
000240 d8 0b c2 bc 60 eb b5 3b c6 83 2f 3d aa 8c 16 bd
       -0.023687288 0.0055517405 0.04285028 -0.03675524
000250 2d ed ce 3d c0 6c 70 bb e5 83 c2 3d 09 7f b0 3d
       0.101038314 -0.0036685914 0.09497813 0.0861798
000260 06 6f e5 bd 2d 98 43 be 98 9f a2 be 5d a4 9f 3c
       -0.11202817 -0.19101019 -0.31762385 0.019487554
000270 a2 26 85 bb f7 d8 bb bc 94 8d 47 be 88 a2 35 be
       -0.0040634433 -0.022930605 -0.19487602 -0.17737782
000280 f0 2a 35 3d b4 6c 82 be 56 fb 0d 3e 48 81 d0 3d
       0.0442304 -0.2547356 0.13865408 0.101809084
000290 aa 52 ce 3c 20 d8 28 3e 56 1c ec bc 92 cb 32 3d
       0.025185902 0.16488695 -0.028822105 0.04365117
0002a0 44 17 17 3e e5 79 a9 bd e4 23 fd bd 91 d4 41 bd
       0.14754969 -0.08275203 -0.12360361 -0.04732186
0002b0 2f 09 ce 3c ef a9 e7 3c 9e 01 f1 3d a0 ae c0 3c
       0.025150863 0.028279273 0.117678866 0.023520768
0002c0 a7 0e a0 bd 9f 64 7e 3e 96 0d 85 3d 62 dd 5b bd
       -0.07815295 0.24843071 0.06496732 -0.053677924
0002d0 3b 60 d7 3d 43 99 8c 3d e5 f9 d8 3d 4f 44 8e 3d
       0.105164014 0.0686517 0.105945386 0.069466226
0002e0 4e 02 31 bd ce a4 a9 bd 94 1b cb 3c 3e 9a 36 3d
       -0.04321509 -0.08283387 0.024793424 0.04458069
0002f0 b4 c5 e6 bd b3 1c e6 bd 32 47 1a 3d 7c f5 5f bd
       -0.11268178 -0.11235943 0.037665553 -0.05467747
000300 04 02 f4 3c 49 4e ee 3d 3e 53 01 3d 00 e5 21 bd
       0.029786117 0.116360255 0.031573527 -0.039525032
000310 de 4e 0a 3d 8e 04 7b 3d 51 e5 00 3c 90 b0 93 be
       0.03376662 0.06128364 0.007867173 -0.28845644
000320 16 82 88 be 95 5b 05 bc 98 96 a5 bd d3 78 9a bd
       -0.26661748 -0.008139511 -0.08085364 -0.07542577
000330 22 2e 03 bb 72 aa 39 3e 73 1e ec be 78 9e 5d bc
       -0.002001651 0.18131426 -0.4611698 -0.013526551
000340 10 36 3c bd 91 d5 ce 3d d3 e1 eb 3d a7 96 c2 3d
       -0.045949996 0.10099328 0.11517682 0.09501391
000350 83 26 c8 bd 28 4c 8b bc 30 36 cc bb ee d6 1c 3d
       -0.097729705 -0.017004088 -0.0062320456 0.03829091
000360 80 2e 00 ba 2e 93 b4 bd 70 c6 a8 3b 80 2f 9f bc
       -0.00048897415 -0.08817135 0.0051506087 -0.01943183
000370 b2 4c 13 bd f4 cd c4 3c 17 b5 79 bd b2 b7 2b 3d
       -0.035961814 0.024023987 -0.060963716 0.041923232
000380 ea 02 76 3d f1 9b 06 3d a6 b7 7f 3e 29 f5 20 3e
       0.060061373 0.03286356 0.249724 0.15718521
000390 10 8a 04 be 44 a9 35 bd 46 9e 53 3d fc 7c 39 be
       -0.12943292 -0.044350877 0.051664613 -0.18114084
0003a0 f6 c4 90 bd 01 90 93 be 45 cd 73 bc 79 26 84 bc
       -0.07068817 -0.28820804 -0.014880483 -0.016131626
0003b0 2d f6 ab 3c 50 b8 82 3c 6e cf bb bd 6a ae 58 be
       0.02099141 0.015957028 -0.091704234 -0.21160284
0003c0 fe 92 71 be 1a da 33 bd d0 1b b6 bd 2f 0a 1f 3e
       -0.2359123 -0.04390917 -0.088920236 0.15531228
0003d0 c1 d5 10 bd ed 45 45 3c 6f 04 0a 3d 1c 9a 9d bd
       -0.0353601 0.012040597 0.033695634 -0.0769541
0003e0 d7 24 a3 3c 1f 99 1d bd 39 c2 d6 bd 55 67 a0 be
       0.019915028 -0.038476106 -0.10486264 -0.31328836
0003f0 94 d7 b7 bc 9f 71 9b 3d d8 83 b7 bc bf 7c 9d bd
       -0.022441663 0.07590031 -0.022401735 -0.07689809

dec.conv1.model.2.bias f4 [8]
000000 19 3d 4c 3d 6f 69 9a 3d 04 f7 c5 3d ad 79 c7 3b
       0.049862955 0.07539641 0.09666255 0.006087503
000010 3e 67 34 3e 78 c9 31 bd 7f 53 97 bb d7 3d 91 3d
       0.17617509 -0.043405026 -0.004618108 0.07091873

dec.conv2.model.0.weight f4 [16, 8, 3, 3]
000000 a9 32 ac bc bd 8b 0f be 8e b8 b9 3d 08 b5 07 3d
       -0.02102025 -0.1401815 0.09068404 0.03313163
000010 a7 c2 6c bd 6b 4b 83 3b cc 79 68 bd 4c cd 91 3d
       -0.057802822 0.0040067933 -0.05675678 0.071192354
000020 62 45 b5 3d 0d 61 0d bb 25 1c 0a 3e 53 a0 cf 3d
       0.08851124 -0.002157274 0.13487299 0.10138001
000030 3f af f0 bb 99 54 ad 3d c4 52 ac 3d 8a d4 b1 bd
       -0.0073451097 0.08463401 0.08414224 -0.08683117
000040 00 4c 0a bd 0b 3b b5 bd 4f ce 21 be ca 0f 29 3d
       -0.033763885 -0.08849152 -0.15801357 0.041274823
000050 5b 26 21 be 18 ca e6 3d 7e 8f cd bc 71 30 de bc
       -0.15737288 0.11269015 -0.025092836 -0.027122708
000060 6d 80 aa bd 15 2b 55 3d 72 de 1e bd a1 9b f8 3d
       -0.083252765 0.05204304 -0.03878636 0.12139059
000070 f8 5d a9 bc 03 fb 99 3d 70 2e 55 3b 45 ba 0b be
       -0.02067469 0.0751858 0.00325289 -0.13645275
000080 e4 5d 8e 3c bc 98 09 be b2 8c 35 3d 6e c5 a0 bc
       0.017378755 -0.1343717 0.04432363 -0.019625392
000090 61 df b9 bd f2 58 2b be ae aa 11 be 2c 2f 98 bc
       -0.09075809 -0.16733149 -0.14225265 -0.01857718
0000a0 5e 28 32 be 6f 78 de 3d ec cf 43 bd 42 43 90 bd
       -0.17398211 0.10862815 -0.04780571 -0.070440784
0000b0 bf cf 0f 3d 51 a2 3e be 1e 16 38 bd 3f 33 22 be
       0.03511023 -0.18616606 -0.044942968 -0.15839861
0000c0 cc 88 ae 3d 01 57 dd 3a a2 24 8d bd c5 dc c7 3b
       0.08522186 0.0016886891 -0.06891753 0.006099316
0000d0 9c 98 9e bb 75 12 66 3e af 5e f9 bc be e5 6d bc
       -0.00483997 0.22467978 -0.030440656 -0.014520107
0000e0 82 a7 21 3e 91 86 5b 3d 3d f4 e4 3b 4e 5e ae 3d
       0.15786555 0.05359513 0.0069871233 0.08514081
0000f0 38 34 68 bc 30 a3 8e 3c e4 1c cb bc 6a 6f 04 3e
       -0.014172606 0.017411798 -0.02479405 0.12933126
000100 dd 38 48 3e b5 d0 0f bd d5 93 d0 bd df 00 0d be
       0.19552942 -0.035111148 -0.10184447 -0.13769864
000110 17 0d 22 be ae dc df bd 4a 8f a8 3d 89 b0 c0 3d
       -0.15825306 -0.10930763 0.08230455 0.094086714
000120 c9 67 f4 3d 2d e9 ae 3d de 5f 19 bd 5f 0b 5e 3d
       0.11933858 0.085405685 -0.03744494 0.054210063
000130 a7 ee 0c 3e 19 a2 bc bd c8 7e 8b bd 37 d9 03 bc
       0.13762914 -0.09210605 -0.06811291 -0.0080473935
000140 83 1d 61 be ec 54 8b 3d fb a1 41 3d bb fe bc bc
       -0.21983914 0.06803307 0.047273617 -0.023070684
000150 fb a5 88 3c eb 51 99 bd 02 78 db bc b7 01 f2 bb
       0.016680708 -0.07486328 -0.026790623 -0.0073854583
000160 be 2d d0 3d 74 1f 0c 3d e6 85 6d 3d 58 73 93 3d
       0.10164975 0.034209684 0.057989024 0.071997344
000170 a4 5c 43 3e 7f cd b7 bc b8 21 f7 3d 57 87 da bd
       0.19078308 -0.022436855 0.12066978 -0.10670345
000180 ce c8 c6 bd e7 57 85 be 3d 42 0f 3c 80 4b 2d 3d
       -0.09706269 -0.26043627 0.00874382 0.04230833
000190 3e b5 aa 3d 38 8b 0e be 34 39 68 3d 29 61 82 bd
       0.083353505 -0.13920295 0.05669518 -0.06366188
0001a0 6a b9 89 3d 56 fc ba bc 08 ae 0c 3e 21 a6 66 be
       0.06724818 -0.022825401 0.13738263 -0.2252431
0001b0 66 07 1e 3d a0 6b 9b bd 47 d0 d3 bd 35 b4 62 3d
       0.038581274 -0.07588887 -0.1034246 0.05534764
0001c0 df db 50 bd 25 4e 66 bd a5 a6 5a bd 30 f6 7c 3e
       -0.050990935 -0.05622687 -0.05338158 0.24703288
0001d0 e4 4e 12 3d f9 ef 5a bb a3 0b c7 bd bf 5d 5b 3e
       0.035719767 -0.0033407195 -0.097190164 0.2142248
0001e0 28 94 ab 3c fc ea cb 3d f6 00 01 3e 4e 7d 27 be
       0.02094467 0.09956929 0.12598023 -0.16356394
0001f0 cf e3 88 3e 80 13 fa 3c b2 21 23 be 92 7e e4 3d
       0.26736304 0.030526876 -0.15930822 0.11156954
000200 45 6e ea 3d b8 7b d7 bc fa 8a 3a bd 50 cf 8c 3c
       0.114468135 -0.02630411 -0.045542695 0.017188698
000210 50 3a 84 3d f2 aa 1f 3e ba 6e 0e 3e 28 ed 3f 3e
       0.06456435 0.15592554 0.13909426 0.18742812
000220 3d 42 e1 bb 9b 47 81 3d 80 2f fe 3d 93 e8 d3 bd
       -0.0068743513 0.06312486 0.12411404 -0.103470944
000230 e3 fe a1 3d d3 6f 03 3d dc 22 cd bc 9d 8c 26 be
       0.07909944 0.032089066 -0.025041036 -0.16264577
000240 b7 7a 92 3d b6 d0 60 be ee b5 2c 3d eb 94 e3 bd
       0.07152312 -0.21954617 0.04216569 -0.11112388
000250 bb 5e cd 3d 49 1f a6 3d 54 90 ea 3d da 12 50 3d
       0.10027834 0.08111436 0.1145331 0.05079923
000260 82 73 4b bd 0e 31 88 bd f0 68 2a 3c 87 0f 84 3e
       -0.049670704 -0.066499814 0.010400996 0.25793096
000270 3b a6 68 bd 77 80 0b be 70 80 a9 3d 43 52 06 bd
       -0.056799155 -0.13623224 0.08276451 -0.032793295
000280 e4 a0 ba 3d 37 2b 00 3e 7c e0 ac be 43 80 81 be
       0.09112719 0.12516485 -0.33765018 -0.25293168
000290 dc 10 74 bd 82 04 89 3a d4 c6 be 3b 8e c1 f4 3d
       -0.05958639 0.0010453614 0.005822042 0.1195098
0002a0 5e bb 82 be 50 0d 47 3e 4d 76 64 bb da 44 2d bc
       -0.25533575 0.19438672 -0.0034860552 -0.0105754975
0002b0 fc af bd 3d ec 4d 97 bc af c9 2a bc d4 ff 2a bd
       0.09262082 -0.018469773 -0.010424062 -0.041747883
0002c0 1c 8d 4a 3e 69 96 f6 bc ee 61 a2 bc 0f 53 8c 3d
       0.19780391 -0.030101018 -0.019822087 0.0685178
0002d0 7e 4e 0b 3e f0 3f 03 be 6d e7 6c bc 71 53 07 be
       0.13604161 -0.12817359 -0.014459473 -0.13215424
0002e0 14 b6 47 be b3 c5 25 be 14 d5 43 3d b0 c1 1d 3d
       -0.19503051 -0.16188698 0.04781063 0.038514793
0002f0 4e c3 ac bd 52 98 c9 3d 54 b5 d2 bb 69 01 6e bd
       -0.08435689 0.09843506 -0.0064303074 -0.058106814
000300 57 f6 ea bd 13 fe 3a 3d 54 bc 17 3e ef 70 98 bd
       -0.11472767 0.04565246 0.14817935 -0.074434154
000310 b9 ff 33 bc f5 d8 26 be 32 f7 62 3d 81 04 15 3d
       -0.010986262 -0.162937 0.055411525 0.03638125
000320 36 39 8a 3d 16 bd 01 3e 25 e6 92 3d 5a cc 06 be
       0.06749193 0.12669787 0.07172803 -0.13163891
000330 e8 20 44 bd cf 2a 4e bc ad 62 9a 3d 69 4c 8d 3c
       -0.047882944 -0.012583449 0.07538352 0.01724835
000340 d8 c6 1e 3e a6 4a 87 bd 4d 07 c5 bd 1d 8e a8 3c
       0.1550554 -0.06606035 -0.09620533 0.020575577
000350 0a 74 61 3b 1e be 6d 3d ed 71 1f 3d 25 9d 13 bd
       0.003440144 0.058042638 0.038927007 -0.036038537
000360 1f 2c a8 be 85 54 88 bd 50 f4 21 be 71 22 8e 3e
       -0.32846162 -0.06656746 -0.15815854 0.27760652
000370 d6 2d 16 3e be 48 66 3d 84 70 84 bd 82 70 63 3d
       0.14665923 0.056221716 -0.06466773 0.055527218
000380 6e e2 fe bc fa 79 52 bd ed 80 4c 3e dc ff 53 3e
       -0.03111383 -0.051385857 0.19971056 0.20703071
000390 3e c7 30 3c c8 43 82 bd 3a 39 0e 3d bb c5 3b be
       0.010789691 -0.063605845 0.034722544 -0.18337147
0003a0 1f 7f b7 bd 96 bb bb 3d 6b 0e d6 be 85 e3 6b be
       -0.08959793 0.091666386 -0.41807875 -0.2303601
0003b0 ac 84 95 be 7b 7a 04 3e dd 48 8e 3e b2 02 9e 3c
       -0.29202783 0.12937348 0.27789965 0.019288395
0003c0 a9 af 8b 3b 11 95 46 3e bb 9d 37 3e 7c 66 9a 3e
       0.0042628837 0.19392802 0.17931263 0.30156314
0003d0 75 42 48 3e ac 4c 37 3e 03 69 82 3d f8 c4 f3 3c
       0.19556601 0.17900342 0.06367686 0.029757008
0003e0 6a fb cd bd 96 f7 c2 bd 1d c3 78 be a3 64 3e bd
       -0.10057719 -0.095198795 -0.2429318 -0.046482693
0003f0 8a 92 1d 3e 0d fa 33 bd ce 21 2e be 79 4b a9 be
       0.15387931 -0.04393964 -0.17005083 -0.33065394

dec.conv2.model.0.bias f4 [16]
000000 95 f8 18 be a5 dc ed bd c8 b6 1d 3b f8 c6 3d bc
       -0.14938577 -0.1161435 0.0024065245 -0.011583082
000010 2a 3b a7 3c d7 ba 17 bd 69 a8 e2 bd a2 4b 95 bd
       0.020413954 -0.03704342 -0.11067278 -0.072898164
000020 df 45 20 3e d8 85 98 bd 47 a7 af bc e7 db aa 3d
       0.15651654 -0.07447404 -0.021442069 0.08342724
000030 99 8c b8 3c 52 45 66 bd bf 9f 99 bd af 10 f5 3b
       0.02252798 -0.056218453 -0.07501172 0.0074787955
