4. deep_learning/rnn.pth (torch, 70686 bytes, 23 tensors)

rnn.weight_ih_l0 f4 [8, 3]
0	0x3cf04055	0.02932755
1	0x3e62afbd	0.22137351
2	0x3e4cf0e5	0.20013769
3	0x3d518235	0.051149566
4	0x3e39f55b	0.18160002
5	0x3d41efbb	0.047347765
6	0x3e7f8641	0.24953558
7	0x3df3fbdd	0.119132735
8	0x3d9f491b	0.07777616
9	0xbe61026c	-0.2197358
10	0xbea63ee9	-0.32469872
11	0xbed81b54	-0.4220835
12	0xbdefe004	-0.117126495
13	0x3ea8305d	0.32849398
14	0x3eb0e20c	0.3454746
15	0x3e186927	0.14883862
16	0x3d99b1d3	0.075046204
17	0x3eb415f5	0.35173002
18	0x3dfb86be	0.122815594
19	0xbe9abd22	-0.30222422
20	0x3e43e219	0.19129218
21	0xbe3b3705	-0.18282707
22	0xbc7fece8	-0.015620448
23	0xbdb31585	-0.08744339

rnn.weight_hh_l0 f4 [8, 8]
0	0x3dc9ece7	0.09859639
1	0x3dec35f6	0.1153373
2	0x3e7110e1	0.23541595
3	0x3ea92a90	0.33040285
4	0xbcb07b04	-0.021543033
5	0x3e0268fa	0.12735358
6	0xbe268e3a	-0.16265193
7	0xbe8275df	-0.25480554
8	0x3d1cfd76	0.038327657
9	0xbe1891ab	-0.14899318
10	0xbe1a139f	-0.15046547
11	0x3e7b2db3	0.24529152
12	0xbea5a684	-0.32353604
13	0xbe104b1b	-0.1409115
14	0xbe691bc9	-0.22764505
15	0xbe57901b	-0.21051066
16	0x3de72ed9	0.11288232
17	0x3c79d9d2	0.015249686
18	0xbc1530ae	-0.009105844
19	0x3eaadce3	0.33371648
20	0xbe6c56e5	-0.23080023
21	0xbe547cf4	-0.20750791
22	0x3e91b3c6	0.2845747
23	0xbe6cd5a1	-0.23128368
24	0x3d88374a	0.066511706
25	0x3e200b4a	0.15629306
26	0xbeac32ac	-0.3363241
27	0xbe592c34	-0.21208268
28	0xbe089206	-0.13336954
29	0xbe0800c5	-0.13281544
30	0x3e6d746a	0.2318894
31	0x3dbe3917	0.09288233
32	0x3e7819ef	0.24228643
33	0xbb8a4a1b	-0.00422026
34	0x3e84f239	0.2596605
35	0x3e3ea3d8	0.18617189
36	0xbe2a0ffe	-0.16607663
37	0x3eb73ab4	0.35786974
38	0x3c4687cd	0.012117338
39	0x3e1cf249	0.153268
40	0x3c9ac45c	0.01889246
41	0x3e867a72	0.26265293
42	0xbe80de12	-0.25169426
43	0xbcd817d0	-0.026378542
44	0xbe40b746	-0.18819913
45	0xbe97f3a1	-0.29678062
46	0x3d89e3a9	0.06732876
47	0x3e3a921a	0.18219796
48	0xbea68497	-0.32523033
49	0x3e81d9b5	0.2536141
50	0xbdf3b174	-0.11899081
51	0xbe8cfcd8	-0.27536654
52	0xbeace112	-0.33765465
53	0xbbfd94f9	-0.007738706
54	0x3db3bba1	0.08776022
55	0xbe0325de	-0.12807414
56	0x3eaf0e81	0.34190753
57	0x3dc91038	0.098175466
58	0xbe9d879f	-0.30767533
59	0xbde1f4a0	-0.11032987
60	0xbe3e751b	-0.1859936
61	0xbca0a739	-0.019610988
62	0x3e9c3b34	0.30513918
63	0xbe927448	-0.2860434

rnn.bias_ih_l0 f4 [8]
0	0xbe6e4549	-0.23268618
1	0xbe9fced2	-0.3121248
2	0x3ea86585	0.32889953
3	0xbdc7f002	-0.09762575
4	0xbda5fefc	-0.08105275
5	0x3e2e4392	0.17017964
6	0x3d6eff5c	0.058349
7	0xbe97f97c	-0.2968253

rnn.bias_hh_l0 f4 [8]
0	0xbe803d59	-0.25046805
1	0xbe387278	-0.18012416
2	0xbd0c51fe	-0.03425788
3	0x3e9d16b5	0.30681387
4	0xbe9eb1b3	-0.3099495
5	0x3df84964	0.12123373
6	0xbde0883f	-0.10963487
7	0x3e14ad12	0.14519146

rnn.weight_ih_l1 f4 [8, 8]
0	0xbdbdb708	-0.09263426
1	0xbddb4717	-0.10706919
2	0xbdac6886	-0.08418374
3	0xbe290b23	-0.16508155
4	0x3e7b30a4	0.24530274
5	0xbe8d0db7	-0.27549526
6	0xbed16bfd	-0.409027
7	0xbec867cd	-0.39141694
8	0xbebd20ff	-0.36939237
9	0x3ca7a2cd	0.020463372
10	0x3cc82342	0.024430875
11	0xbe46b983	-0.19406705
12	0xbe9f005e	-0.31054968
13	0xbe7ea52c	-0.24867696
14	0xbda3772e	-0.07981716
15	0x3e11b0b0	0.14227557
16	0xbe72cc45	-0.23710735
17	0xbea7d421	-0.3277903
18	0x3e68bc10	0.2272799
19	0x3e2e0801	0.16995241
20	0xbb23359a	-0.0024903775
21	0xbe971d1a	-0.2951439
22	0xbde260dc	-0.11053631
23	0x3e8c3769	0.27386025
24	0xbdb1e928	-0.08687049
25	0x3cca7e11	0.024718316
26	0xbe6397b8	-0.22225845
27	0xbeb46bab	-0.35238394
28	0xbd156fe7	-0.03648367
29	0x3ebc7865	0.36810604
30	0x3e9d0e70	0.30675077
31	0xbd3a664e	-0.04550772
32	0x3de144e3	0.10999467
33	0xbe763ad7	-0.24045883
34	0x3dd576fc	0.10423085
35	0xbede068f	-0.4336438
36	0x3eaa0a3c	0.33210933
37	0x3ea19719	0.3156059
38	0x3d8a8bc6	0.06764941
39	0x3e51f5a7	0.20503865
40	0xbe259017	-0.16168247
41	0xbe76cc7d	-0.24101444
42	0xbeb66945	-0.3562719
43	0xbc4cc38c	-0.012497794
44	0x3e02ee09	0.12786116
45	0xbbe4371c	-0.0069645774
46	0x3db03b1e	0.08605026
47	0x3e834991	0.25642064
48	0xbe890583	-0.26762018
49	0xbe619539	-0.2202958
50	0x3dfb835f	0.122809164
51	0x3cfdc8ad	0.030979479
52	0xbeab8723	-0.3350154
53	0x3dd300fa	0.10302921
54	0x3e51cc54	0.20488101
55	0xbe32f075	-0.1747454
56	0xbd299e00	-0.041410446
57	0x3e0d4c4f	0.1379864
58	0xbe016420	-0.12635851
59	0x3d993524	0.07480839
60	0xbebedc7e	-0.37277597
61	0xbdc5e20f	-0.09662258
62	0x3e86407a	0.26221067
63	0xbe5e6e59	-0.21721782

rnn.weight_hh_l1 f4 [8, 8]
0	0x3c9f95d0	0.019480616
1	0x3e194e70	0.14971328
2	0x3deee1e3	0.11664178
3	0x3e9aad9c	0.30210578
4	0xbe2b099c	-0.16702884
5	0xbe6d952d	-0.23201437
6	0xbec625b1	-0.3870063
7	0x3e892492	0.26785713
8	0xbdd3e22a	-0.10345872
9	0x3de2fd1f	0.11083435
10	0x3d99a189	0.075015135
11	0xbe4f71ce	-0.20258257
12	0x3e0cdf9b	0.13757174
13	0x3e0d527b	0.13800995
14	0xbe0a96b0	-0.13534045
15	0x3eb0af37	0.34508678
16	0xbe967fd6	-0.29394406
17	0x3d87e95e	0.06636308
18	0x3c83fa02	0.016110424
19	0x3cec1178	0.028816923
20	0x3d8619e2	0.065479055
21	0x3e2c1656	0.16805395
22	0xbd88b040	-0.06674242
23	0xbeb13a08	-0.34614587
24	0xbe883fda	-0.26611215
25	0xbe6c98be	-0.23105142
26	0x3e04fccc	0.1298706
27	0x3eab53ea	0.3346246
28	0x3e6de6f5	0.23232634
29	0xbe806fac	-0.250852
30	0xbc4d7c27	-0.012541807
31	0xbbd94145	-0.006630095
32	0x3e5d83db	0.2163233
33	0x3d1710f2	0.036881395
34	0x3e4435aa	0.19161096
35	0xbe7cdb3a	-0.24693003
36	0xbe7021fb	-0.23450463
37	0xbe9769c9	-0.29572895
38	0x3cd71d96	0.026259225
39	0xbda37c65	-0.07982711
40	0x3d30ac7f	0.043133255
41	0x3d66fe34	0.05639477
42	0xbc84b15e	-0.016197857
43	0x3e744d98	0.23857725
44	0x3e16dfb6	0.14733776
45	0x3e95cd7e	0.2925834
46	0x3e74a4d5	0.23891003
47	0x3e00231c	0.12513393
48	0x3ed692bb	0.4190882
49	0x3e285f1c	0.16442531
50	0x3e8d884f	0.27643058
51	0xbe09c324	-0.13453346
52	0x3e798bb5	0.243697
53	0xbdae72b1	-0.085179694
54	0xbd4cdbe9	-0.05001441
55	0x3e26ac8f	0.16276763
56	0x3e5ed42e	0.21760628
57	0xbd98e19a	-0.07464905
58	0x3bd62bb3	0.006535971
59	0x3ba6e5c0	0.0050933063
60	0x3e9274af	0.28604648
61	0xbe124455	-0.14283879
62	0xbd62d022	-0.055374272
63	0x3d1cdc8d	0.03829627

rnn.bias_ih_l1 f4 [8]
0	0xbdb7b111	-0.089693196
1	0xbe07bd39	-0.13255776
2	0xbe9d21a9	-0.30689743
3	0x3dfb4066	0.122681424
4	0xbe8132d5	-0.25234094
5	0x3ea83b43	0.32857713
6	0xbeaa4474	-0.3325535
7	0x3cbaca13	0.022801435

rnn.bias_hh_l1 f4 [8]
0	0xbe4083a7	-0.18800221
1	0x3d519293	0.051165175
2	0x3e59cfef	0.21270727
3	0x3ea03d45	0.31296745
4	0xbe0ae0cd	-0.13562317
5	0x3de1cb9b	0.11025163
6	0xbe066165	-0.1312309
7	0x3e8fb3cf	0.2806687

rnn.weight_ih_l2 f4 [8, 8]
0	0x3d191c14	0.037380293
1	0x3e918d9b	0.2842835
2	0xbe8b017c	-0.2714957
3	0x3e9b6fea	0.3035882
4	0x3e934b76	0.2876851
5	0x3e9b936a	0.30385906
6	0x3de9609e	0.113953814
7	0x3e65eae2	0.22452882
8	0xbdfd2543	-0.12360623
9	0x3eb5a80b	0.3547977
10	0xbd0a2c00	-0.033733368
11	0xbebc8626	-0.36821097
12	0x3d89bf07	0.06725889
13	0x3e22672c	0.1585967
14	0xbe9f65b7	-0.3113229
15	0x3e7d144f	0.24714778
16	0x3dfc3395	0.12314526
17	0xbd5ba042	-0.05361963
18	0x3dc4c87d	0.096085526
19	0xbe2f135b	-0.17097227
20	0xbdebe3c9	-0.11518056
21	0xbe59bac7	-0.21262656
22	0x3ea38a53	0.3194147
23	0x3d78414c	0.060609147
24	0x3e0fd053	0.14044313
25	0x3e33c34b	0.17554967
26	0xbd9f9d90	-0.077937245
27	0xbc30b1af	-0.010784551
28	0xbeafdde6	-0.34348983
29	0xbe6aefb9	-0.2294301
30	0x3e3e62cb	0.18592374
31	0x3e4be831	0.19912793
32	0xbe8e8d72	-0.2784229
33	0xbea54d72	-0.3228565
34	0xbd9867eb	-0.07441696
35	0xbe321510	-0.17390847
36	0xbe3da947	-0.18521605
37	0xbec162f4	-0.37770808
38	0x3e5de012	0.21667507
39	0xbda9e46e	-0.08295523
40	0xbe88835f	-0.26662728
41	0x3e702c56	0.23454413
42	0x3ece89d0	0.40339518
43	0xbe688e77	-0.22710596
44	0xbe381561	-0.17976905
45	0x3e949205	0.29017654
46	0x3eb4130a	0.35170776
47	0x3d598600	0.053106308
48	0xbeb96a81	-0.3621407
49	0xbe2b76b7	-0.16744505
50	0x3d521f19	0.05129919
51	0x3d4b28cf	0.049599465
52	0xbebdefc3	-0.37096986
53	0x3e818942	0.25300032
54	0xbe816ca0	-0.25278187
55	0x3ce23143	0.02761138
56	0x3c929fc2	0.017898444
57	0xbe00e158	-0.12585962
58	0x3d8ae87d	0.06782625
59	0xbe96ed64	-0.2947799
60	0x3e08df9a	0.13366547
61	0x3ddba13f	0.107241146
62	0x3e8fab08	0.28060174
63	0x3ea3af77	0.31969807

rnn.weight_hh_l2 f4 [8, 8]
0	0xbce12629	-0.027484016
1	0xbe690162	-0.22754434
2	0x3d68c606	0.056829475
3	0xbe5210f5	-0.20514281
4	0xbcedfb40	-0.02905047
5	0x3e37a9c9	0.17935862
6	0x3e1a12e6	0.15046272
7	0x3e0ad8f1	0.13559319
8	0x3d80acbe	0.06282948
9	0x3d858f47	0.065214686
10	0x3e6f6cd7	0.23381363
11	0x3e441439	0.1914834
12	0xbe239961	-0.15976478
13	0xbe1c85a9	-0.15285362
14	0xbeb666da	-0.35625345
15	0x3d516261	0.051119212
16	0x3d47facf	0.048823174
17	0x3d3be0de	0.045868747
18	0xbd0e31df	-0.03471553
19	0x3df1ab70	0.11800277
20	0xbe843c8e	-0.2582745
21	0x3dfda89a	0.12385674
22	0x3df9a04e	0.12188779
23	0x3d9bf6a5	0.07615403
24	0xbe9475ac	-0.28996027
25	0x3e9fccc0	0.312109
26	0xbe8ae498	-0.27127528
27	0x3bfed45b	0.0077767796
28	0xbe6cbed7	-0.23119675
29	0x3eab8937	0.33503124
30	0x3ea0fc41	0.31442454
31	0x3b8fda1f	0.0043900157
32	0x3e549992	0.20761707
33	0x3e558736	0.2085236
34	0xbe10dc68	-0.14146578
35	0xbd802d4f	-0.06258642
36	0x3e3a058e	0.18166181
37	0xbe0706fa	-0.13186255
38	0xbbd45cc6	-0.006480786
39	0xbe219720	-0.15780306
40	0x3996d06c	0.00028765516
41	0xbec21436	-0.37906045
42	0xbde9aaaa	-0.11409505
43	0x3e7fe599	0.24989928
44	0xbc18222f	-0.009285494
45	0xbe4c5a0f	-0.1995623
46	0xbeaf47a7	-0.34234354
47	0x3e868ec4	0.26280797
48	0xbeacc314	-0.33742583
49	0x3cc7b48b	0.024378082
50	0x3a8aec82	0.0010599049
51	0xbe463258	-0.19355142
52	0xbe85bf7f	-0.26122662
53	0x3e8efec8	0.27928758
54	0xbe8c0a84	-0.27351773
55	0x3d7f05dc	0.062261447
56	0xbe9f1b17	-0.31075355
57	0xbc641fc0	-0.013923585
58	0x3e7ca4c3	0.24672227
59	0x3e947b0e	0.29000133
60	0x3e8964b8	0.26834655
61	0xbe2de4ea	-0.16981855
62	0x3e8ec301	0.2788315
63	0xbe5a7a87	-0.21335803

rnn.bias_ih_l2 f4 [8]
0	0xbc8ce36c	-0.017198287
1	0xbe0ff00c	-0.14056414
2	0x3e74d657	0.23909889
3	0xbe1b2bf1	-0.15153481
4	0x3e982d07	0.29721853
5	0x3e1c96d6	0.15291914
6	0xbe0b2de4	-0.13591725
7	0x3e133b9f	0.14378212

rnn.bias_hh_l2 f4 [8]
0	0xbd54b03f	-0.051925894
1	0xbd9d0dc8	-0.07668644
2	0x3b92c626	0.0044791875
3	0x3e8f65ac	0.28007257
4	0x3e14b760	0.14523077
5	0xbe6e5dac	-0.2327792
6	0xbea09bf5	-0.31368986
7	0xbea1c0da	-0.31592447

rnn.weight_ih_l3 f4 [8, 8]
0	0xbd4146cf	-0.04718667
1	0xbe785004	-0.24249274
2	0xbec734c5	-0.38907447
3	0xbea2d9b5	-0.31806722
4	0xbd28540e	-0.041095786
5	0xbeb40c07	-0.35165426
6	0xbcfe7b98	-0.031064793
7	0xbe9ab90e	-0.3021931
8	0x3e7d02ac	0.2470805
9	0xbeb5411b	-0.35401234
10	0x3dc98499	0.09839744
11	0xbe41dcc6	-0.18931875
12	0x3e7788ef	0.2417333
13	0xbebe2113	-0.3713461
14	0xbe867fdc	-0.26269424
15	0x3d81cacb	0.06337508
16	0xbe55bb7d	-0.20872302
17	0x3d837b5d	0.06420014
18	0x3bc6e834	0.0060701612
19	0xbeb3c41f	-0.35110566
20	0x3e1557bd	0.14584251
21	0x3dab9be6	0.08379345
22	0xbe9cbf25	-0.30614582
23	0x3d2fbb76	0.042903386
24	0xbe294313	-0.16529493
25	0x3e23617a	0.15955153
26	0xbdfa6172	-0.122256175
27	0x3deaf1aa	0.11471875
28	0x3e611e38	0.21984184
29	0x3e19ee9d	0.1503243
30	0x3e2de7c3	0.16982941
31	0x3e6b829f	0.22999047
32	0xbd8961a6	-0.06708078
33	0xbda6dfee	-0.0814818
34	0x3eb8110f	0.35950515
35	0x3e4154f6	0.18880066
36	0x3e4f9239	0.20270623
37	0x3dc4fd51	0.09618629
38	0x3e31a199	0.17346801
39	0x3ddd82d1	0.10815967
40	0xbe05cea7	-0.13067113
41	0x3e72d1f4	0.23712903
42	0x3d07ac47	0.03312328
43	0x3ea07611	0.31340078
44	0x3e21e393	0.15809469
45	0x3e981e0c	0.29710424
46	0x3ba9a4c6	0.005177113
47	0x3e45a526	0.1930128
48	0x3e313ffb	0.17309563
49	0x3e2c1144	0.16803461
50	0xbd9a75d4	-0.07542005
51	0x3eaa4e97	0.33263084
52	0xbd5d737c	-0.054065213
53	0x3ed5792c	0.4169401
54	0x3e8a4160	0.27003002
55	0xbe09bc2a	-0.13450685
56	0xbcbf7b13	-0.023374116
57	0xbe82e14c	-0.25562513
58	0xbc4c68a3	-0.012476119
59	0xbead324c	-0.33827436
60	0xbe53523c	-0.20636839
61	0xbc18f397	-0.00933542
62	0xbe96c9fe	-0.29450983
63	0x3e90402f	0.28173968

rnn.weight_hh_l3 f4 [8, 8]
0	0x3e1475ac	0.14498013
1	0xbde73746	-0.112898394
2	0xbdbc4f56	-0.0919482
3	0x3e4e1e19	0.20128669
4	0xbe797192	-0.2435973
5	0x3e86387a	0.26214963
6	0xbd33acf9	-0.04386613
7	0xbde88c3a	-0.11354871
8	0x3eca8b70	0.39559507
9	0xbdd55c8c	-0.104180425
10	0x3e91d2af	0.2848105
11	0xbe67da1c	-0.22641796
12	0x3e9469ac	0.2898687
13	0x3e51bc21	0.20481922
14	0xbe84cfa7	-0.25939676
15	0xbd3daf2d	-0.04630964
16	0x3ebc54e9	0.3678353
17	0xbcd50f49	-0.026008265
18	0x3e7095e3	0.23494677
19	0xbe5e2614	-0.21694213
20	0x3e7ae542	0.24501517
21	0xbe91b512	-0.28458458
22	0x3caaef7e	0.020866152
23	0xbe253546	-0.16133603
24	0xbe8f85af	-0.2803168
25	0xbeb9852c	-0.36234415
26	0xbe562bad	-0.20915098
27	0x3e3475f5	0.17623122
28	0x3e2e14f2	0.17000178
29	0x3e87f727	0.2655575
30	0x3ea56185	0.32300964
31	0x3cf414f0	0.02979514
32	0xbd8d5b04	-0.069021255
33	0xbe05b12b	-0.13055865
34	0x3df43469	0.11924059
35	0xbe79bb25	-0.24387796
36	0x3e842680	0.25810623
37	0x3c1b52f4	0.009480227
38	0xbe294762	-0.16531137
39	0xbe99aac5	-0.300131
40	0x3e76d450	0.24104428
41	0x3e4008fe	0.1875343
42	0xbd881ee8	-0.0664652
43	0xbe9bcedf	-0.30431268
44	0x3e1e40cb	0.15454404
45	0xbe5d1011	-0.2158816
46	0xbc12a122	-0.00894955
47	0x3e9a38c1	0.30121425
48	0xbe0417e6	-0.12899742
49	0xbcdb1de8	-0.026747659
50	0xbd0369c2	-0.03208328
51	0xbe8ecf77	-0.27892658
52	0x3dbc1941	0.09184504
53	0x3e4c77e7	0.19967614
54	0x3e8be674	0.2732426
55	0xbe9182fe	-0.28420252
56	0xbe6eac69	-0.23307957
57	0xbd3dc4b2	-0.04633016
58	0x3db20813	0.08692946
59	0x3e6d027e	0.23145482
60	0x3e77e7e0	0.24209547
61	0xbebabad2	-0.36470658
62	0xbe86f193	-0.26356182
63	0x3c4e4fad	0.012592238

rnn.bias_ih_l3 f4 [8]
0	0x3dc911dd	0.0981786
1	0x3e977ae4	0.29585946
2	0x3da67de2	0.08129479
3	0x3e2e5cab	0.17027538
4	0xbd500047	-0.050781514
5	0xbe05ac44	-0.13053995
6	0xbe7e9d45	-0.24864681
7	0xbea9fca0	-0.3320055

rnn.bias_hh_l3 f4 [8]
0	0x3d6ddb6a	0.058070578
1	0x3c2f4a43	0.010698858
2	0x3eaa565d	0.33269015
3	0x3cb8c3a5	0.022554228
4	0x3ea6741d	0.32510462
5	0xbc124a50	-0.00892885
6	0x3e011f5a	0.12609616
7	0x3e5b3546	0.21407041

rnn.weight_ih_l4 f4 [8, 8]
0	0xbcf0f5e9	-0.029414134
1	0xbe971578	-0.29508567
2	0xbe109132	-0.14117888
3	0x3eb5fdb6	0.3554513
4	0x3a22a537	0.00062044285
5	0xbc8c2d72	-0.017111514
6	0x3ea98d99	0.33115843
7	0x3e84bd6f	0.25925776
8	0x3eb4a95a	0.35285455
9	0x3df428d6	0.11921851
10	0xbdd7cf8e	-0.10537635
11	0xbe53e5a5	-0.20693071
12	0xbe740f93	-0.23834066
13	0xbea38a54	-0.31941473
14	0xbddacc7e	-0.10683535
15	0x3e087af8	0.13328159
16	0x3e85dbdc	0.26144302
17	0x3e7e202a	0.24816957
18	0x3e3e8e18	0.18608892
19	0xbea97fc6	-0.33105296
20	0xbea2eb86	-0.31820315
21	0xbdd0681c	-0.10176107
22	0x3e349519	0.17635001
23	0x3e9327f8	0.2874143
24	0x3e7ba569	0.24574818
25	0xbe2901ff	-0.16504668
26	0x3e5f556e	0.21809933
27	0x3e0d23a2	0.13783124
28	0xbe762ad7	-0.2403978
29	0xbe0fcfe9	-0.14044155
30	0xbe7a2463	-0.24427943
31	0x3e787096	0.24261698
32	0xbddc18e6	-0.107469365
33	0x3e18baf3	0.14915065
34	0x3df8d7cf	0.12150537
35	0xbe90af30	-0.28258657
36	0xbe74572f	-0.23861383
37	0x3ef50e00	0.47862244
38	0x3eb55ce6	0.35422438
39	0xbd977530	-0.073953986
40	0xbe316566	-0.17323837
41	0x3e86c952	0.2632547
42	0x3cdde6f3	0.027087664
43	0x3db8240c	0.089912504
44	0xbd97ff2d	-0.07421718
45	0xbd225486	-0.03963139
46	0xbe98e734	-0.29863894
47	0x3e236877	0.15957819
48	0xbedb18af	-0.4279227
49	0x3b218c8b	0.002465042
50	0x3ddabbe7	0.10680371
51	0xbe33a6db	-0.17544119
52	0xbd9be84f	-0.07612669
53	0x3e738986	0.2378293
54	0xbd155e0a	-0.036466636
55	0x3e074a97	0.13212048
56	0x3e9431e3	0.2894431
57	0xbe70b2dd	-0.23505731
58	0x3e395e53	0.18102388
59	0xbe23eec9	-0.16009058
60	0x3e94b8c5	0.29047218
61	0x3e35b33d	0.17744155
62	0xbeb1f90b	-0.34760317
63	0x3e33786c	0.17526406

rnn.weight_hh_l4 f4 [8, 8]
0	0xbe38d74e	-0.18050882
1	0x3e31c231	0.17359234
2	0xbd9846a2	-0.07435347
3	0xbea1d1b1	-0.31605294
4	0x3e57b4ae	0.21065018
5	0x3e59aba1	0.21256877
6	0x3d726a9f	0.059183713
7	0x3d034af4	0.032053903
8	0x3deb7bc1	0.114982136
9	0x3d502a30	0.050821483
10	0x3e7ad162	0.24493936
11	0x3dfaa1a1	0.122378595
12	0xbe6360d2	-0.22204903
13	0x3ebb3f8d	0.36571923
14	0xbe56da28	-0.20981658
15	0x3eaff13b	0.34363732
16	0xbe69dfaa	-0.22839227
17	0xbde43add	-0.1114404
18	0x3d5f5d55	0.054532368
19	0x3dd0123e	0.101597294
20	0xbdac1b81	-0.084036835
21	0xbd5df28b	-0.054186385
22	0xbeaf1e3b	-0.34202752
23	0x3e9398eb	0.28827605
24	0xbe19b24e	-0.15009424
25	0xbe3f473c	-0.18679518
26	0xbd879ca2	-0.06621672
27	0xbd231ad5	-0.03982051
28	0x3e2778e0	0.16354704
29	0x3e29d7e6	0.16586265
30	0x3e63b5e5	0.22237356
31	0x3d41ec2b	0.047344368
32	0x3eb1ea8f	0.34749267
33	0xbdb30d58	-0.087427795
34	0xba6b7060	-0.0008981284
35	0xbe60e91c	-0.21963924
36	0x3e115599	0.14192809
37	0xbd583745	-0.052787084
38	0x3e9ab15c	0.3021344
39	0xbe278b86	-0.16361818
40	0xbd417d3c	-0.047238573
41	0x3dab8469	0.083748646
42	0x3e9988c6	0.29987162
43	0x3eb5ada1	0.3548403
44	0xbe73ece6	-0.23820838
45	0xbe3f2feb	-0.18670623
46	0xbea3ecfb	-0.3201674
47	0x3dddf848	0.108383715
48	0xb9efa018	-0.00045704911
49	0x3e8ecee6	0.27892226
50	0x3e47f50e	0.19527075
51	0xbdf68bf5	-0.120384134
52	0x3eae0427	0.33987543
53	0x3e5f5bf1	0.21812417
54	0x3dcff976	0.10155003
55	0xbe9ce63f	-0.30644414
56	0x3e801bca	0.250212
57	0xbeafbf02	-0.34325415
58	0x3e82cad0	0.2554536
59	0x3e41000d	0.18847676
60	0x3e5d1de9	0.21593441
61	0xbd552ddd	-0.05204569
62	0x3e7036e6	0.23458442
63	0x3cb94df0	0.022620171

rnn.bias_ih_l4 f4 [8]
0	0x3e4bfed4	0.19921428
1	0x3d9ab31c	0.07553694
2	0xbdc5fc54	-0.096672684
3	0xbdf47e5b	-0.11938163
4	0x3e428a82	0.18998149
5	0xbd1d50c1	-0.03840709
6	0x3e3f255c	0.18666595
7	0xbe1a4467	-0.15065156

rnn.bias_hh_l4 f4 [8]
0	0x3e678efb	0.22613136
1	0x3e3c913e	0.1841478
2	0x3e179703	0.148037
3	0x3d64f4f4	0.055897668
4	0xbe9a13f7	-0.30093357
5	0x3e589bf9	0.21153249
6	0xbe10af45	-0.1412936
7	0x3d0331fa	0.032030083

fc1.weight f4 [64, 240]
0	0xbd48afb9	-0.048995707
1	0x3d397167	0.045274165
2	0x3d27320f	0.040819224
3	0x3d6769b4	0.05649729
4	0x3ca70c96	0.020391744
5	0x3d4142a1	0.047182683
6	0xbd4d3111	-0.05009562
7	0xbb871643	-0.004122527
8	0x3d84b3cc	0.06479606
9	0x3d5d9c89	0.05410436
10	0xbcb99e17	-0.02265839
11	0x3d00eb02	0.03147412
12	0xbd1ea59f	-0.038732167
13	0x3d189689	0.037252937
14	0xbd5d274b	-0.05399255
15	0xbd049483	-0.032368194
16	0xbb0e60af	-0.0021725108
17	0x3c8a85d0	0.01690951
18	0x3d41bd25	0.047299523
19	0xbd0a0b60	-0.033702254
20	0xbd54e11d	-0.051972497
21	0x3d2e7c8b	0.042599242
22	0xbd3ece85	-0.04658367
23	0xbd3ab791	-0.04558522
24	0x3c4f8bc0	0.012667596
25	0xbd8973c0	-0.06711531
26	0x3b136e20	0.002249606
27	0xbcbef0d4	-0.023308195
28	0x3c950c10	0.018194228
29	0x3d4d7189	0.050157104
30	0x3b8584b8	0.004074659
31	0x3ce35308	0.027749553
32	0xba292652	-0.00064525486
33	0xbbb53393	-0.0055298298
34	0xbcbc5db5	-0.022993902
35	0x3d2db08f	0.042404708
36	0xbde3883c	-0.11109969
37	0xbd4384fa	-0.04773424
38	0xbd6f81ba	-0.058473326
39	0xbd1899fc	-0.037256226
40	0xbd036ae5	-0.032084364
41	0xbce2b74d	-0.027675295
42	0xbb8782e1	-0.004135475
43	0xbd28fdf0	-0.0412578
44	0xbb9f78f8	-0.0048667155
45	0x3d34b502	0.044117935
46	0xbd13f552	-0.036122628
47	0xbd1f873e	-0.038947336
48	0x3d017324	0.031603947
49	0x3c9ad89e	0.01890212
50	0x3d916247	0.07098823
51	0xbcf7659a	-0.030199815
52	0xbd3a2746	-0.04544761
53	0x3d54934a	0.05189828
54	0xbcda1597	-0.026621623
55	0x3d771980	0.060327053
56	0xbc3ce7a5	-0.011529838
57	0x3d3aa3f7	0.045566525
58	0x3d4ad97c	0.049523816
59	0x3cad7cdd	0.021177704
60	0xbd8b8486	-0.06812386
61	0xbbb605c8	-0.0055548884
62	0xbc995506	-0.0187173
63	0xbd27c917	-0.04096326
64	0xba8949ee	-0.0010474303
65	0xbd04e387	-0.03244355
66	0x3cbfbcd2	0.023405466
67	0xbcd858ba	-0.026409496
68	0xbda696d7	-0.08134239
69	0xbc16f187	-0.009212858
70	0x3d00e584	0.031468883
71	0x3c44e6a3	0.012017879
72	0xbbd5d524	-0.0065256525
73	0xbcaf61e4	-0.021408983
74	0x3d457883	0.048210632
75	0xbd2b7b80	-0.041865826
76	0x3b236c22	0.0024936278
77	0xbd72f946	-0.059319757
78	0xbd7b2517	-0.06131467
79	0xbd14186b	-0.0361561
80	0xbd692bb2	-0.056926437
81	0x3d41d2f9	0.04732034
82	0xbd794947	-0.0608609
83	0x3d6bb068	0.05754128
84	0x3cec6319	0.028855847
85	0x3b28d6d5	0.0025762815
86	0xbd51b270	-0.051195562
87	0xbd144c9b	-0.03620587
88	0x3d86abb6	0.0657572
89	0xbd5e015b	-0.05420051
90	0xbd33d407	-0.043903377
91	0xbd05ffb2	-0.032714553
92	0xbc7158b8	-0.014730625
93	0x3d461485	0.048359413
94	0xbd7e4463	-0.062076937
95	0xbbb5d817	-0.0055494416
96	0xbd492a48	-0.04911259
97	0x3ceceda1	0.028921904
98	0xbc8e1ea0	-0.017348588
99	0xbb9bfd7b	-0.004760442
100	0x3cb05b60	0.021527946
101	0xbd2e3265	-0.04252853
102	0xb9972fbd	-0.00028836532
103	0x3d755c57	0.059902515
104	0xbcccfdfb	-0.025023451
105	0x3d163c29	0.036678467
106	0xbd606be0	-0.054790378
107	0xbd3d96b7	-0.04628631
108	0x3cd6933b	0.026193252
109	0x3d305e35	0.043058593
110	0xbd6e3a41	-0.058161024
111	0x3c9a612b	0.018845161
112	0x3d3dcff9	0.046340916
113	0x3cf638cd	0.030056382
114	0xbd7fa0ad	-0.06240909
115	0x3c9c0eaa	0.019049961
116	0xbcfd0578	-0.030886397
117	0xbcd3b0a9	-0.025841074
118	0x3b9477a8	0.0045308657
119	0x3c0090e7	0.007847047
120	0xbc515d8c	-0.012778651
121	0x3d0f6c85	0.0350156
122	0x3cf86d93	0.030325687
123	0x3d8aead3	0.067830704
124	0xbd414768	-0.04718724
125	0xbd7f28e9	-0.062294874
126	0x3d5bf2bd	0.05369829
127	0x3d152b9f	0.036418553
128	0xbc57727c	-0.013149854
129	0x3a8def9c	0.0010828855
130	0xbd14ceeb	-0.036330145
131	0x3cf53575	0.029932717
132	0xbd17e145	-0.03708007
133	0xbb01ceaa	-0.001980702
134	0xbc89ae2f	-0.01680669
135	0x3d58b658	0.05290827
136	0x3d4cfc08	0.050045043
137	0x3d431ea9	0.04763666
138	0xbbcc48bd	-0.006234257
139	0x3d2ddd76	0.04244753
140	0xbd56ded3	-0.052458595
141	0xbd2bfee5	-0.041991133
142	0x3bb8eaf2	0.005643242
143	0x3c04ddfe	0.008109568
144	0x3d8d3067	0.06893998
145	0x3d1b83d8	0.037967533
146	0xbdb63cbb	-0.08898302
147	0x3d6102be	0.054934256
148	0xbd6cac10	-0.05778128
149	0xbca50f7d	-0.020148987
150	0xbca1d90c	-0.019756816
151	0xbd8aedb9	-0.06783623
152	0x3d0feca7	0.0351378
153	0xbd808fd5	-0.06277434
154	0xbbf83183	-0.0075742616
155	0x3d43af16	0.047774397
156	0x3d839d9a	0.064265445
157	0xbd27c812	-0.040962286
158	0x3cd50158	0.026001617
159	0xbd21a500	-0.039463997
160	0x3ce8c88f	0.028415946
161	0xbd013663	-0.031546008
162	0xbbb6e7d3	-0.005581835
163	0xbd3b79a1	-0.04577029
164	0xbbc80c0c	-0.0061049517
165	0x3c6b9243	0.014378133
166	0x3d68534d	0.056720067
167	0xbcd05113	-0.025429284
168	0x3bc63849	0.00604919
169	0x3d5b2747	0.053504255
170	0xbdbfea2d	-0.09370837
171	0x3c87d174	0.016579367
172	0x3d42c479	0.047550652
173	0xbc9b16e1	-0.018931808
174	0x3cbcdb42	0.023053769
175	0x3bb0b32f	0.005392454
176	0x3d6e3413	0.05815513
177	0xbc2bdcf3	-0.01048969
178	0x3bcd01b3	0.006256306
179	0xbd7b7159	-0.061387394
180	0x3d91ccf1	0.071191676
181	0x3be0f6e9	0.0068653715
182	0xbc62a8bc	-0.013834175
183	0x3cfde242	0.030991677
184	0xbd07665c	-0.033056602
185	0xbc9c60ca	-0.019089121
186	0xbd7e48d2	-0.062081166
187	0x3d54e73a	0.051978327
188	0x3ca93c38	0.020658597
189	0xbd10063a	-0.035162188
190	0x3beebcf2	0.0072857076
191	0x3c9b2c27	0.018941952
192	0x3d821188	0.06351
193	0x3d2e72c9	0.042589936
194	0xbd654dcd	-0.0559824
195	0x3c41e078	0.011833303
196	0xbce878f8	-0.028377995
197	0x3bb98890	0.0056620315
198	0x3b4762db	0.0030423913
199	0x3cc14e30	0.023596853
200	0x3d77e5a2	0.06052173
201	0x3d0a8dc8	0.03382662
202	0x3b58bf68	0.0033073071
203	0x3c89ce39	0.016821967
204	0x3c9bfd8b	0.019041797
205	0x3d53561b	0.05159579
206	0x3c165a5e	0.009176819
207	0xbc18e52d	-0.0093319835
208	0x3da6c789	0.08143527
209	0xbc186474	-0.009301294
210	0xbcb731e9	-0.022362666
211	0x3ad93a09	0.0016573082
212	0xbcb596a3	-0.022166556
213	0xbd875e97	-0.066098385
214	0xbd510ad7	-0.05103573
215	0x3bbb473e	0.00571528
216	0xbc2a379c	-0.010389235
217	0xbd87090f	-0.06593525
218	0xbbe88d79	-0.007096943
219	0xbb25b669	-0.0025285727
220	0x3d5a97f8	0.053367585
221	0x3d5606d4	0.052252606
222	0x3b085ede	0.0020808498
223	0xbd63bd2d	-0.055600334
224	0x3d2c92e6	0.04213228
225	0x3cfeea85	0.031117687
226	0xbddff2b2	-0.10934962
227	0xbd45a992	-0.048257418
228	0x3d6ffba3	0.05858959
229	0x3d41ccad	0.047314335
230	0x3d1b89d3	0.037973236
231	0x3d1016c8	0.035177976
232	0x3d8aade6	0.0677145
233	0x3c2a8dbd	0.01040977
234	0xbd9e5878	-0.07731718
235	0xbc85cee3	-0.016334003
236	0x3de6a7eb	0.112624966
237	0x3ca1e330	0.019761652
238	0x3c93ea3e	0.018056031
239	0xbd0a4078	-0.03375289
240	0xbd0f7a87	-0.03502896
241	0xbd44064b	-0.047857564
242	0xbc7c2dea	-0.015391806
243	0xbcc88b9d	-0.024480635
244	0xbb097b91	-0.0020978192
245	0xbd532986	-0.05155327
246	0xbcfcfa3e	-0.030881044
247	0xbc043370	-0.008068904
248	0xbc808c74	-0.015691973
249	0xbd8d6784	-0.0690451
250	0xba3fdc54	-0.0007318903
251	0x3c27419f	0.010208516
252	0xbccfe284	-0.025376566
253	0xbd95d72b	-0.07316431
254	0xbd4bd0e2	-0.049759753
255	0xbb83d682	-0.004023374

fc1.bias f4 [64]
0	0x3d375187	0.044755485
1	0x3cf6b68d	0.030116344
2	0xbd327502	-0.04356862
3	0xbd06571e	-0.032797925
4	0x3d4ac3fd	0.049503315
5	0xbd368066	-0.044556044
6	0xbcfdd228	-0.030984
7	0xbc15907c	-0.009128686
8	0xbd162d09	-0.036664043
9	0x3da45ed0	0.080258965
10	0xbcbf884e	-0.023380425
11	0xbcf9be13	-0.030486142
12	0xbd9cf53c	-0.07663962
13	0xbda9c53e	-0.08289574
14	0x3d14e2a3	0.03634895
15	0xbd5b647d	-0.05356263
16	0x3b236a67	0.0024935247
17	0x3bbc302e	0.005743048
18	0xbc214104	-0.009842161
19	0xbd093c0f	-0.033504542
20	0xba6bbabb	-0.00089923636
21	0x3b2d2e2e	0.002642523
22	0x3d0b9e39	0.03408644
23	0x3c4257cd	0.011861754
24	0x3d475314	0.048663214
25	0x3d6875a2	0.05675281
26	0xbd5f4e6e	-0.054518156
27	0xbd87f9ad	-0.06639419
28	0xbc83ff73	-0.016113019
29	0x3b061dc5	0.0020464521
30	0xbd1188d9	-0.0355309
31	0x3d13aa4b	0.036051076
32	0x3cb2618c	0.02177503
33	0xbbf0dba1	-0.0073504006
34	0x3d656cae	0.05601185
35	0xbcf81c48	-0.030286923
36	0x3da4771f	0.08030533
37	0xbd174b11	-0.036936823
38	0xbc288bb3	-0.010287213
39	0x3d9ff783	0.07810881
40	0x3c374519	0.011185908
41	0xbd929b86	-0.0715857
42	0x3d1c6445	0.038181562
43	0x3d017d76	0.03161379
44	0x3b06f713	0.0020594045
45	0x3d56afa5	0.0524136
46	0xbc040854	-0.008058626
47	0xbc47254f	-0.012154891
48	0xbd034c35	-0.0320551
49	0x3c5807e5	0.013185476
50	0x3d8ffa93	0.07030215
51	0x3c076e9f	0.00826612
52	0xbd2151da	-0.0393847
53	0xbd40788d	-0.046989966
54	0xbb122fd7	-0.0022306347
55	0xbd1ac25a	-0.037783004
56	0x3d994e1e	0.07485603
57	0xbce0bbbc	-0.027433269
58	0x3d01d335	0.031695563
59	0xbc4898fd	-0.0122435065
60	0x3c720b25	0.014773165
61	0x3c999aa7	0.018750502
62	0xbd94a8fc	-0.07258794
63	0xbc853e1e	-0.016264971

fc2.weight f4 [1, 64]
0	0xbdd2aee2	-0.102872625
1	0xbd94f0bf	-0.07272481
2	0xbd7e74d2	-0.062123127
3	0x3e0540df	0.13013028
4	0x3dc35e8e	0.09539519
5	0xbdc382d7	-0.0954644
6	0x3d537403	0.05162431
7	0xbcbf9cc7	-0.023390187
8	0x3d46f900	0.04857731
9	0x3e0cc95f	0.13748692
10	0xbddb2856	-0.10701053
11	0xbdb6aafb	-0.08919331
12	0xbc6dbb12	-0.014509933
13	0xbb9b1aa3	-0.0047334
14	0x3d96897c	0.07350442
15	0xbd6bcc22	-0.057567723
16	0xbdf9ffee	-0.12207018
17	0x3dcf8c54	0.10134187
18	0xbdd23367	-0.102637105
19	0x3d87b693	0.0662662
20	0xbd9125ef	-0.070873134
21	0xbd4fb332	-0.050708003
22	0x3df62b64	0.12019995
23	0xbc6a8a0e	-0.014315141
24	0x3d92efcd	0.071746446
25	0x3d5af822	0.053459294
26	0xbd18946b	-0.037250917
27	0xbdbf3d7d	-0.093379
28	0xbd682edc	-0.056685314
29	0xbd5766e6	-0.052588366
30	0x3d3cd52c	0.046101734
31	0xbda1545f	-0.07877421
32	0x3dfe5793	0.12419047
33	0xbdf4db23	-0.119558595
34	0x3ca5bf49	0.020232813
35	0x3e0803ab	0.13282649
36	0x3d7e8235	0.062135894
37	0xbd6c0beb	-0.057628553
38	0xbd867eb8	-0.065671384
39	0x3d776a27	0.06040397
40	0xbd7413c7	-0.059589174
41	0x3d8f6937	0.0700249
42	0x3bb25485	0.0054422044
43	0xbd2f2ac5	-0.042765398
44	0xbdf0c657	-0.1175658
45	0xbe0019d5	-0.12509854
46	0xbd2a9e3d	-0.041654814
47	0x3d834ca7	0.06411105
48	0xbdeb0685	-0.11475853
49	0xbddf1db1	-0.10894335
50	0x3da8977b	0.082320176
51	0x3d6ae53f	0.057347532
52	0x3bea68ec	0.007153621
53	0x3dd68755	0.10475031
54	0xbd960e2e	-0.07326923
55	0xbd66cd7b	-0.056348305
56	0x3d23a2fe	0.039950363
57	0xbca20a0f	-0.019780187
58	0xbcd4b1f2	-0.025963757
59	0xbde27d98	-0.11059111
60	0xbdb8a42e	-0.0901569
61	0xbdeaa708	-0.1145764
62	0x3d02e202	0.03195382
63	0x3dd5d98a	0.10441883
