deep_learning/BostonRegression.pth (torch, 14818 bytes, 5 tensors)

model.0.weight f4 [64, 13]
00000000: 6e50 763e 04e5 25be ce62 523e fef5 5c3e
00000010: 40f6 293c bcbe 9a3d 8c13 38be 06a7 043e
00000020: aa69 473e ddf2 61be 3032 913d 08f3 2f3d
00000030: 009e 9dbc 059b d03e 6721 53be 0868 98be
00000040: d8eb 0dbf 162a 2e3e 4152 7cbf d8ec c2bd
00000050: 3fc4 033d b062 013e 5d8f f23c d596 01be
00000060: 8b12 c93d b7fd 10be 27e3 3f3f 7163 d9be
00000070: 3502 f5be 6854 efbf fda7 183e bdc1 5abf
00000080: 7aa3 623e c206 1e3e acf6 98bd 78d1 4bbe
00000090: 644c 103e 1b0b 353e 3631 18bf 3a30 27be
000000a0: 4cfe cb3d 4b20 23be 5ea5 79be 6ec9 193e
000000b0: 0020 50b9 7240 34be ace6 303e 8c18 79bd
000000c0: 4932 1dbe 0833 203e fd93 41be fef2 d2bd
000000d0: f2e4 583f a7b9 0c3d 084b 33bf a355 183f
000000e0: 5f21 bb3d ff24 7c3f fa4d c9bd ec05 07be
000000f0: 0baa 253e d62b 9abe 7a34 89be 0ffd 863e
00000100: 172b ed3d bab4 223e 7807 9fbb f943 8abe
00000110: ec82 a4be cc5a 73be adce 1f3f eed6 453c
00000120: 793f 03bf 7604 55be 46c5 b73d 7216 a73d
00000130: bef0 3ebd eca9 1abf ec57 66bd b010 16be
00000140: 00a8 aabb a815 88be ba44 b2bd ce30 e0bd
00000150: 44c0 283e 7ceb 8c3d 3c40 5fbe 70ae 68be
00000160: 9e5c 49be 66ba 40be c851 2e3e 05b7 27bf
00000170: 2ded aa3d ac99 a03c 3dcb 4540 a173 743d
00000180: 6110 7f3d aae1 453e 7e49 893e 8ae7 f1be
00000190: bfb9 6a3d 0cea 8a3e e763 b4bd 531b 5f3f
000001a0: 2545 abbe cde0 3abe 87ee 4ebe f9c4 8d3f
000001b0: 6157 7ebe 04a6 913f 480d 77be d898 7d3d
000001c0: 46c5 8e3e 0633 95bc be2e 5c3e 6555 dc3c
000001d0: a37a 4e3f defc 9c3e 528d 13be 8616 c3bd
000001e0: 73d8 49bf 7f8b 213e 7c87 083e 0a22 853e
000001f0: 83ef acbe ab9a 40be 9cf8 97bd ffde 8a3e
00000200: 7abf 803a d499 bbbe 9252 443e 442b fe3d
00000210: 8aa3 04be 50a8 873d c8f3 af3d 461d 6fbe
00000220: 7f64 02be b0f6 dabd 214a 0abe c4b1 6fbe
00000230: 72c1 b8bd 9ee2 83be ae38 653e 1075 fabd
00000240: 54c0 4bbd d808 7d3e 9a05 94bd 97a0 483e
00000250: 83af d73d 225e 0e3e ef5d a43c d5cb cdbd
00000260: 91ff 8ebe 3fef 45be f251 8d3d b01d c33e
00000270: bfef 99be de86 d53d 42a7 283d 89f8 8c3e
00000280: ac85 0cbf fca1 803f 505f 153e 0de6 40be
00000290: a9e8 5cbd ca38 3a3e fdb0 e1bd b806 ebbd
000002a0: 1941 0fbf e82b 65bf f787 d43d 8335 953d
000002b0: eb2d fa3e d798 40bd 59d0 45bf 14a9 90be
000002c0: b7f7 293e 117f ea3e 6a66 69bd fd09 9b3e
000002d0: 0935 343e 7692 d4be 8fa5 bd3e be1b 5dbe
000002e0: 5baf c93e 9112 12c0 f316 e83e ec4e 97be
000002f0: bc47 d53d fb67 a03e 32df 3a3e 7944 453d
00000300: 0ee0 cfbe 78de e7be f76e 523f ffda 17bf
00000310: 3e7f 113e 111f 6e3e acde 183f 66be e63d
00000320: e671 74bf 89dd d0bd d644 5e3d fb84 c23e
00000330: 0bde ffbd b263 7a3e 7623 023e 4ced 76be
00000340: 2230 933d 7488 bfbe 673c 1d3e e7ab 563e
00000350: 4451 643f 278a 20be 1f89 723e ee42 73be
00000360: 5857 c53d a58c 083e 5c30 0ebe de58 5fbe
00000370: e18d 643f 6011 63be 885e 5f3e 61f2 14be
00000380: 10db 2c3e 70c3 973d 3624 463e 24ca 5b3e
00000390: e846 eb3d 8a03 e9bd 31fa 28be 17b4 883e
000003a0: f8ff 41bd 5855 e9bd 2123 3bbe 1d67 243e
000003b0: 371d 8ebd 17e5 113f 8ee6 22bf ea5a 753f
000003c0: cab2 623d 2fb5 e8be e2ae 27ba 73c5 da3d
000003d0: 1b39 babd 321d 16bd 84bd 4e3d e476 ab3e
000003e0: ef49 d23e 6909 60bc 24b9 623f 95aa 9fbe
000003f0: 50bc 19bf 814e f73d a495 bebf e04e ce3d
0.24054119 -0.16200644 0.20545503 0.21578214 0.010373652 0.07555911 -0.17976207 0.1295434
0.19473901 -0.22065301 0.07089651 0.042956382 -0.01924038 0.4074327 -0.2061821 -0.2976687
-0.55437994 0.17008242 -0.9856301 -0.095178306 0.032169577 0.12635303 0.029609377 -0.12655194
0.0981799 -0.14159285 0.7495598 -0.4245868 -0.47853246 -1.8697634 0.14907832 -0.8545187
0.22132674 0.15432265 -0.07468924 -0.19904125 0.1409164 0.17680018 -0.5945009 -0.1632699
0.09960613 -0.15930288 -0.24379489 0.15018246 -0.00019848347 -0.17602709 0.17275494 -0.060814425
-0.15351214 0.15644467 -0.1890411 -0.10300253 0.8472434 0.03435674 -0.70036364 0.5950567
0.091372244 0.9849395 -0.09829326 -0.13185853 0.16178147 -0.3011157 -0.2679785 0.26364943
0.11580484 0.15889254 -0.0048531853 -0.27004984 -0.32131135 -0.23765105 0.6242474 0.012075169
-0.51268727 -0.20802483 0.08973174 0.08158578 -0.04661631 -0.6041553 -0.056236193 -0.14654803
-0.0052080154 -0.26579022 -0.08704515 -0.10946809 0.16479594 0.068808526 -0.21801847 -0.22722793
-0.19664237 -0.18821105 0.17023385 -0.6551364 0.08346019 0.019604526 3.0905297 0.059680585
0.06227148 0.19324365 0.26813883 -0.47246963 0.057306048 0.2713169 -0.08808117 0.8715107
-0.3345119 -0.18249817 -0.20208178 1.1075736 -0.2483802 1.1378789 -0.2412616 0.06191334
0.27884883 -0.018212806 0.21502206 0.026896188 0.8065588 0.30661672 -0.14409378 -0.095257804
-0.788459 0.1577587 0.13332933 0.26002532 -0.33776483 -0.18809001 -0.07420465 0.27123258
0.000982269 -0.366408 0.19172123 0.12410596 -0.1295301 0.066239 0.085914195 -0.2335101
-0.12733649 -0.10691583 -0.1350484 -0.23407656 -0.09021272 -0.25758833 0.22384903 -0.12229359
-0.049743965 0.24710405 -0.07227631 0.1959251 0.10531523 0.13903096 0.020064322 -0.100486435
-0.27929357 -0.19329546 0.069003955 0.38108587 -0.30065724 0.104261145 0.041175134 0.27533367
-0.5489147 1.0049434 0.1458714 -0.18837757 -0.05393282 0.18185726 -0.11020086 -0.11475891
-0.55958706 -0.8952012 0.10377496 0.07285597 0.48863158 -0.04702076 -0.7727104 -0.28253996
0.16598402 0.4580007 -0.056982435 0.30281058 0.17598356 -0.4151799 0.37040374 -0.21592614
0.39391598 -2.2823832 0.4533001 -0.295524 0.10414073 0.3132933 0.18249205 0.048161004
-0.40600628 -0.45286918 0.8220057 -0.59318537 0.14208695 0.23254038 0.5971477 0.11266784
-0.95486295 -0.101985045 0.054264866 0.3799208 -0.12493523 0.24452093 0.1270884 -0.24113959
0.07186915 -0.37408793 0.15355073 0.20964013 0.891865 -0.15677701 0.2368512 -0.23756
0.096358 0.13334902 -0.13885635 -0.21811244 0.8927899 -0.22174597 0.21813405 -0.14545585
0.1688044 0.074103236 0.19349751 0.2146383 0.11488134 -0.11377628 -0.1650169 0.26699898
-0.04736325 -0.11393231 -0.1827512 0.1605496 -0.06939166 0.5699019 -0.6363305 0.9584185
0.055346288 -0.45450732 -0.0006396604 0.10682192 -0.09092923 -0.036648937 0.050473705 0.33489144
0.41072032 -0.013674119 0.8856375 -0.3118483 -0.6005297 0.1207552 -1.4889417 0.10073638

model.0.bias f4 [64]
00000000: c8dd 8dbe 0b37 e5be 5dd6 723d cad4 4d3e
00000010: 588c 803e abfa c53e f653 e2bd b73f 613e
00000020: 838f f43e ffc8 37bd bcd8 173e 8e13 3e3d
00000030: 18e5 c33e fa2a a6be 5f1a 3abe db6f b6be
00000040: 26fd b1be 86a6 39be 9232 b33d 2d7c e8be
00000050: 554f fe3d 80ae 903e 685c b63d 2564 463e
00000060: e3a4 3a3e 2e5d 893c 3c17 0a3e 7808 913d
00000070: 01c7 203e f878 a33d e5b2 883e d029 83bc
00000080: ec40 a8be 2e84 3c3e 9c83 9bbe 1e16 0abd
00000090: 9319 653e 383d 80be 504f 973e e7eb 013f
000000a0: f136 8bbc 672b 733e 93ab 7dbe 4a02 6c3e
000000b0: 4680 5b3e 2b96 1c3e ee2a 0f3d 97b9 a03d
000000c0: 6d5b 8fbe 38a1 373d 7371 213e 4b15 7bbe
000000d0: 790a d7be 9d71 b5be 0726 b33d fe23 973e
000000e0: 3389 5c3e db2c 8b3e 0233 6bbe ce1b 5fbd
000000f0: 5003 aa3c b62d a6be 9c58 d63d 964a 85be
-0.27708268 -0.44768557 0.059286464 0.20100704 0.25107074 0.38667807 -0.110511705 0.21996962
0.4776574 -0.04486942 0.14828771 0.046405368 0.38260722 -0.32454664 -0.18174122 -0.35632214
-0.3476345 -0.1812993 0.0874988 -0.4540724 0.12417475 0.28258133 0.08904344 0.1937414
0.18226962 0.016768064 0.13485426 0.070816934 0.15700914 0.07982057 0.26698986 -0.016011149
-0.3286203 0.18409798 -0.30373847 -0.0337125 0.22373037 -0.25046706 0.29552698 0.50750583
-0.016993972 0.23747025 -0.24772482 0.23047748 0.21435651 0.1529166 0.03495305 0.078478985
-0.2799944 0.044831485 0.15765934 -0.24519841 -0.42000178 -0.35438243 0.087474875 0.29519647
0.21536712 0.2718266 -0.22968677 -0.054469876 0.020753533 -0.3245675 0.1046612 -0.26033467

model.2.weight f4 [32, 64]
00000000: 7e1e c5bd bcd9 bcbd f141 2cbe ec16 d83d
00000010: 3534 7d3d 6223 883d d013 513d da97 a9bd
00000020: 2e0b bf3e f630 2abe 82d1 983d 96e3 ed3c
00000030: 14c5 ed3d 2910 c4bd dcb2 9a3d 8602 e3be
00000040: 77fd 1fbc c826 4abd f737 283d 30c0 02bd
00000050: ca4c 963e 682f b33d 91cd aa3e b9fa e33d
00000060: b431 7bbd 9766 e33e fc7d 383d 63d7 a6bd
00000070: d4e7 39bd 66d5 ef3d 2526 6d3d 708c 483d
00000080: 1770 e1bd 61d6 1a3e 46c9 87be 3878 a5bd
00000090: 3060 e1bc 71a2 b03d e684 f33e 05b3 953c
000000a0: 1eed 213b 8026 efbc 90f2 103c 0033 f73d
000000b0: 400c a3bc 7a2e bbbd 01a2 98bd 366f 4cbf
000000c0: 6f04 163d 156c 8b3e 1306 303e 63c8 c23d
000000d0: d034 86bd 82e9 b3bd d96b 2f3e 32df 3ebe
000000e0: 8776 a83e 3804 e93d 16e1 f83d 2ed6 6abe
000000f0: c6d6 b03d 95a5 6c3d 4cec 75bd 36b3 c3bd
00000100: b40e be3d 904e 86bd 30e4 a23c 9c9c 443d
00000110: e6b6 c1bd 706b 2bbd 4243 88bd 1476 afbd
00000120: 0095 213a 0652 e6bd 7ceb 62bd f2e5 87bd
00000130: 6858 88bd fc98 e1bd 749c 6fbd 5455 1bbd
00000140: 9893 24bd dc05 5dbd 8077 5a3c 6227 c3bd
00000150: f8c8 dd3d dc1d f13d 5051 46bd 1ea4 88bd
00000160: 80e4 fa3b aace d63d f04b 61bd 2038 b93b
00000170: 02ff c3bd 0011 a4ba 0863 cbbd 364a d2bd
00000180: 80a3 d33c 0c1c 2fbd 2a54 81bd 92a9 cc3d
00000190: 4209 c5bd b8ce 8bbc 2053 c9bc 0445 0f3d
000001a0: e899 bcbd 4ed1 b9bd 907e a03d 60c4 883d
000001b0: 8630 ccbd 7c69 38bd a052 f6bc be27 8f3d
000001c0: e87b 75bd f8c7 aabc e828 f43c ec2a 9fbd
000001d0: 8235 c9bd 4ef5 b73d ac8a 0fbd feef a83d
000001e0: 68a4 79bd 387d f03c 904c 1b3c 249f d53d
000001f0: 0ab5 dfbd 549c ea3d 3479 32bd 44c5 763d
00000200: 5c35 703d e296 ff3c 31e6 6f3e 1867 94bc
00000210: 3d96 3dbd 37dc ec3d 8a33 d83d 0c92 71bd
00000220: db98 1fbf 381a a03d d2a6 c7bd 9109 aa3d
00000230: 80ba fd3c f22b a53d c4ea 13bd bca8 dabd
00000240: a841 a93d 38e0 173d ca2b 753d b191 a93d
00000250: f06e 1bbe 7204 953d f07d 0cbd 5f47 0ebe
00000260: 063f d5bd b367 0abf 2655 fabc 2285 00bd
00000270: 20dc de3c 9872 7c3d a383 4a3d bad2 9cbd
00000280: fe59 453d fba5 f03c 5f85 8f3e 85fd 353d
00000290: 9706 ccbc 90c5 e73c 71b2 a2be 4089 f6bd
000002a0: 4c99 3fbc 136a 10be 24ac 5ebd 1475 64bd
000002b0: c026 95bd 3bc8 d1bd bd3d a33d 894a be3d
000002c0: d3b9 a73c 270b 21bd 218c 90bd 1bea 0dbe
000002d0: db34 58bc e1a5 e83c 1903 173e 5b72 9ebd
000002e0: cd82 57be 7c77 043d b820 f4bc e3fc 6d3d
000002f0: 347d 653d a4f7 babd 8e72 a1bd e037 b43c
00000300: b400 17bd 69b9 20be bb13 c0bd 6c16 973d
00000310: cf3b ccbc dbc9 c73d b071 6fbd 7a7a f83d
00000320: 5d4c 133f a021 0abe ca61 e8bd 5742 7abd
00000330: cd35 3c3e 88e1 2cbe 9fcc 2bbf 7396 163d
00000340: de14 96ba 6a21 fcbd e84c 303e 79e5 04bd
00000350: de69 5a3e d4fc 1cbd 07fb 4e3e 0422 26bd
00000360: 39be 4b3c 01af 3f3e e59a 333d f012 a93d
00000370: 7e07 043d eced 1a3d 723a ea3d 587a 203d
00000380: edea fa3d 8dd4 723b a901 d6be 4904 febd
00000390: 22ec fdbb 252c 96be cf3b 3a3e f8f6 913e
000003a0: 00bd 103e e315 d53d 6cde 073d 7013 003c
000003b0: dcce 233d 2922 073e 0b2b 3dbd e0e2 0cbf
000003c0: 091b a6bd 7c85 583d 7840 393f b1ef 053d
000003d0: 70fb 13be f8c1 3abe b500 1c3e 5061 4d3d
000003e0: c38c 76be 70ca c4bd 7400 6a3d 815c 57bf
000003f0: 14e6 9dbd b545 55bd 38fc 8ebd 20a2 58bd
-0.096249565 -0.09221217 -0.1682203 0.10551247 0.061817367 0.06647374 0.051044285 -0.082809165
0.37313217 -0.1662024 0.074618354 0.029039185 0.11609855 -0.09573395 0.07553646 -0.44337863
-0.009765021 -0.04935339 0.041068997 -0.031921566 0.2935546 0.087492764 0.3335996 0.11131806
-0.061326697 0.44414207 0.045042023 -0.081465505 -0.045387104 0.117106244 0.057897706 0.048962057
-0.110077076 0.15120842 -0.26520747 -0.080795705 -0.027511686 0.08624733 0.4756233 0.01827384
0.0024707983 -0.029193163 0.008846894 0.12070274 -0.019903302 -0.09139724 -0.07452775 -0.79857194
0.036625322 0.27230898 0.17189817 0.09510877 -0.06553042 -0.087847725 0.17130984 -0.1863983
0.3290293 0.11377758 0.12152307 -0.22933266 0.08634715 0.0577751 -0.060039803 -0.09555666
0.09280148 -0.06557953 0.019884199 0.048000917 -0.09458713 -0.041850507 -0.066534534 -0.085674435
0.00061638653 -0.112461135 -0.055400357 -0.066356555 -0.06657487 -0.110155076 -0.058498815 -0.037923172
-0.04017982 -0.053960666 0.013334155 -0.09528996 0.10829347 0.11773273 -0.04841739 -0.06671928
0.007656634 0.10488637 -0.05500406 0.0056524426 -0.09570123 -0.0012517273 -0.09930998 -0.10268061
0.025834799 -0.042751357 -0.06314881 0.099932805 -0.096209064 -0.017066345 -0.02457577 0.034977928
-0.09209043 -0.09073125 0.0783664 0.066780806 -0.099701926 -0.045022473 -0.030068696 0.06990002
-0.05993262 -0.020847306 0.029804662 -0.077718586 -0.09824659 0.08982335 -0.035044357 0.082489
-0.060947806 0.029356584 0.009478703 0.10430744 -0.10923202 0.114555985 -0.04357262 0.06024672
0.058644637 0.031199876 0.23427655 -0.018115565 -0.046285857 0.1156544 0.10556705 -0.05897717
-0.62342614 0.07817501 -0.09748615 0.08302606 0.03097272 0.080650225 -0.03611256 -0.10676715
0.08264476 0.037079066 0.059856214 0.082797416 -0.15179038 0.072762385 -0.03429979 -0.13894413
-0.104124114 -0.5406448 -0.03055818 -0.031376965 0.027204573 0.061632723 0.049441945 -0.076573804
0.048181526 0.02937602 0.28031442 0.04443123 -0.024905486 0.028292447 -0.31776765 -0.12037897
-0.011694264 -0.14102964 -0.054363385 -0.055775717 -0.072827816 -0.10243269 0.0797076 0.0929156
0.02047435 -0.039317276 -0.070579775 -0.13858835 -0.0131961955 0.02839941 0.14747275 -0.07736655
-0.2104599 0.03234051 -0.029800758 0.0581025 0.056027606 -0.09129265 -0.07883178 0.0219993
-0.036865905 -0.15695728 -0.09378763 0.073773235 -0.024930863 0.09755298 -0.05845803 0.121327356
0.57538396 -0.1348939 -0.11346777 -0.061098423 0.18379898 -0.16882908 -0.671091 0.036764573
-0.0011450311 -0.12311061 0.17216837 -0.032445405 0.21329448 -0.038327053 0.20212947 -0.040559784
0.012435489 0.18719102 0.04384889 0.08255565 0.032233708 0.037824556 0.11436929 0.039179176
0.1225184 0.003705296 -0.41798142 -0.12403161 -0.0077490965 -0.29330555 0.18186878 0.28508735
0.14134598 0.10404565 0.033171102 0.007817134 0.0399922 0.13196625 -0.046183627 -0.55033684
-0.08110625 0.052861676 0.72363997 0.03269929 -0.14451385 -0.18238056 0.15234645 0.050141633
-0.24077134 -0.096089244 0.05712934 -0.84125525 -0.077098995 -0.05206843 -0.06981701 -0.05288899

model.2.bias f4 [32]
00000000: 2c73 3f3e c4e2 8bbd 050e 9dbe c049 853e
00000010: 9bd4 91bd 637a d43e 8f14 b2be e455 3eb9
00000020: e58d e1bd e8d1 1f3e 3b14 5f3d 0849 85be
00000030: 8238 213d 2ff6 07be 7cb9 4dbc 904c 593e
00000040: 2c8a 8b3e 7215 663d ec36 723d fa3d 813e
00000050: 9bf7 2ebe cc5b 493d ace6 8a3e 52b8 b13d
00000060: ee43 81bd 8222 de3d b0fb 83be a04d 773e
00000070: 4d06 c33d 136c 763d 8aab e5bd 3710 323e
0.18696278 -0.068303615 -0.3067476 0.2603283 -0.071206294 0.41499624 -0.3478131 -0.00018151809
-0.11013392 0.15607417 0.054462653 -0.2603228 0.03936053 -0.13277505 -0.01255643 0.21220613
0.27253854 0.056172796 0.05913441 0.25242597 -0.17086641 0.04915981 0.27129114 0.086777344
-0.06311785 0.108464256 -0.2577796 0.24150705 0.09522686 0.06016166 -0.11214359 0.17388998

model.4.weight f4 [1, 32]
00000000: 7790 8f3e 3f26 343e 531f 18bc 7e8b a03e
00000010: bb1c 4fbd e778 053d d686 e7bc 5f3c a03e
00000020: 7b70 07bb fad1 f23e 2012 dbbc 0d23 bdbc
00000030: 35b4 e4bd 0c63 6ebd cb30 fe3d 6076 f83b
00000040: 76eb f13d 2b94 f03d e867 e83c 6a36 0d3e
00000050: 5ec7 86bc cb8e 13be 0789 bf3d 4511 6e3f
00000060: bb74 2d3e 20e5 e1bd b949 4cbe e268 123d
00000070: 1793 bcbd cb54 debd 36e9 09bd 2978 273e
0.28039905 0.17592715 -0.009284812 0.31356424 -0.05056451 0.032586005 -0.028262537 0.3129606
-0.0020666409 0.47425824 -0.026742041 -0.023088003 -0.11167184 -0.058199927 0.1241165 0.007582471
0.11812489 0.11747011 0.028369859 0.13790289 -0.016452488 -0.1440994 0.09352308 0.929951
0.1693906 -0.1103003 -0.19949998 0.035744555 -0.09207743 -0.10856017 -0.033669673 0.16354431
