deep_learning/BostonRegression.pth (torch, 14818 bytes, 5 tensors)

model.0.weight f4 [64, 13]
000000 c2 8a 2f bd 12 bb 12 bd 57 39 bb bd 5e 4e 02 bf
       -0.04285694 -0.035822935 -0.09141796 -0.5090083
000010 93 00 79 3e 65 7e ce be 7b 4e 68 3e 16 c7 f2 3d
       0.24316625 -0.40330806 0.22686188 0.11854379
000020 7c 15 9c be cd 1d 17 bd 84 6f 82 bd de ea 79 3e
       -0.3048514 -0.036893655 -0.06368926 0.24406001
000030 59 02 56 3e b7 32 fb bd 6b f7 2d be 0c 62 04 be
       0.20899333 -0.122655325 -0.16988914 -0.12928027
000040 ab 79 f8 3e 9c 88 6f be e1 c5 ec 3e d6 e0 9c be
       0.48530325 -0.23391956 0.4624472 -0.30640286
000050 b2 17 a6 bd 79 cb 56 bd 93 9c c6 bd ca 20 0b be
       -0.08109988 -0.05244014 -0.09697833 -0.13586727
000060 d3 5f 89 3e 3e c1 29 bf e8 ff 0e 3e 4f e5 c4 3c
       0.2683092 -0.6631049 0.13964808 0.024035124
000070 95 84 06 be 25 8c bb bd 45 45 23 3d a1 7f c1 bd
       -0.13136514 -0.0915759 0.039860982 -0.094481714
000080 eb ce 3c be 2c 4a 89 3d c3 89 6a 3e f2 4c 59 bd
       -0.18438308 0.067036 0.22904114 -0.053051896
000090 fa 71 7b 3e 7a 65 33 3d 67 9f 5f be 76 bf 27 3e
       0.24555197 0.043797947 -0.21838151 0.1638163
0000a0 92 6e dd bd b7 3b 7b 3d 90 94 c9 3e 72 2b 7b be
       -0.10812105 0.061336245 0.39371157 -0.24528292
0000b0 03 0a ed bd be 58 33 3d a6 a4 8b be c9 ae be 3d
       -0.11574175 0.043785803 -0.27274054 0.093106814
0000c0 11 92 56 3e be 5b 47 bd 81 fc 0f be 8b 13 c1 be
       0.20954157 -0.048671477 -0.14061166 -0.37710223
0000d0 e1 a6 00 3e 63 de e8 bd 2e f6 78 3e 2e 08 66 bf
       0.12563659 -0.11370542 0.2431266 -0.8985623
0000e0 2a a1 34 3e 0b 96 0b bf f9 02 a2 bd b3 f7 74 3e
       0.17639604 -0.5452582 -0.07910723 0.23922615
0000f0 a2 8f 7b be e7 84 e4 3d 2b 84 0d 3e 0c 3a 50 bc
       -0.2456651 0.111581616 0.1381995 -0.012709152
000100 fb 40 f5 3e 10 a4 a5 3c 67 80 29 be e5 0a 05 be
       0.4790114 0.020219833 -0.16552888 -0.12992437
000110 88 3f 46 be e0 d5 01 bc 54 9f 01 be 98 80 60 3e
       -0.19360173 -0.007924527 -0.12658435 0.21924055
000120 1e d0 75 3e 24 fc 3a be 23 8a 8b be c0 28 c7 3b
       0.24005172 -0.18260247 -0.27253827 0.006077856
000130 f0 01 04 be 01 4d 1c be a5 48 70 be 09 47 2b 3e
       -0.12891364 -0.1526375 -0.23465212 0.16726317
000140 e0 e4 18 3e e4 e5 44 3f e3 fc 1c be c3 5a d1 3e
       0.14931059 0.76913285 -0.15330844 0.40889558
000150 c4 a4 4e 3e e0 73 bc bd 42 37 2f 3e f6 1a 22 3e
       0.2018004 -0.09201789 0.17110923 0.15830597
000160 53 8c b4 be 8d 65 0d 3e a3 85 22 bf 0a b9 e7 3d
       -0.3526331 0.1380827 -0.63485163 0.1131459
000170 54 8d b1 bd 6b 11 81 3d f7 e6 95 3e 22 0d 92 3d
       -0.08669534 0.0630215 0.29277775 0.07131411
000180 50 4d da 3c 84 53 ca 3d d1 a0 87 3d 47 b4 96 be
       0.026648194 0.098792106 0.0662247 -0.29434416
000190 99 bd 30 3d e2 c2 34 be 47 4c 78 be ce 27 7b bd
       0.043149564 -0.17652467 -0.24247847 -0.061317258
0001a0 ae 1b 6f 3e 50 7a e6 bd 91 17 8c be 2e af af bd
       0.23350403 -0.11253798 -0.2736173 -0.08578335
0001b0 d0 f1 af bd 6e b2 62 3e f4 fc 18 be 22 a8 68 3e
       -0.08591044 0.22138378 -0.14940244 0.22720388
0001c0 e0 61 64 be c4 02 e5 bd 30 d1 6d 3d b8 91 fb bc
       -0.22302961 -0.11182168 0.058060825 -0.030709133
0001d0 43 44 0a be dc a3 00 be d9 5d 5c 3e 4f 7f 8b 3d
       -0.13502602 -0.12562507 0.21520175 0.068113916
0001e0 7c a4 03 3f b4 0c 87 be 55 11 3e 3e 62 4f 1a 3e
       0.5142286 -0.2637688 0.18561299 0.15069345
0001f0 22 48 8e 3d 6e 00 ce bc 24 14 1c 3e 0b 5f f8 bd
       0.06947352 -0.02514669 0.15242058 -0.12127503
000200 6d 0a 91 be 39 59 8e 3d 3c 35 b1 3d 00 6a 89 be
       -0.28328267 0.069506116 0.08652732 -0.26838684
000210 14 c8 98 3d aa 2c 59 3e a6 38 67 3e d5 1b 15 be
       0.07460037 0.21208444 0.22580203 -0.14561398
000220 b8 57 66 be 83 43 8b 3e 3e ce 42 be af f2 2e be
       -0.224944 0.27199945 -0.19023988 -0.17084764
000230 b7 fb 80 3e 22 e7 a3 bd 2e 68 55 3e ed ff 9b 3e
       0.25192043 -0.080030695 0.20840523 0.30468693
000240 09 02 f6 3d 43 6b 19 be 48 96 cb 3e 40 ba 2e bd
       0.12012107 -0.14982323 0.39763093 -0.04265809
000250 d3 14 66 3e ef 7d cd bd 84 38 e6 3c b3 32 63 3e
       0.22468881 -0.100337856 0.02810312 0.22187309
000260 1a 0f fb bd de f1 d2 be 06 3f 4a 3e d1 ef 16 bf
       -0.1225874 -0.41200155 0.19750604 -0.5895968
000270 97 34 ae 3e 97 fe d3 3d 4d 29 2e 3d 44 9a 24 bf
       0.34024498 0.103512935 0.042519856 -0.6429789
000280 3e f6 6c bc 72 01 1f be e2 3b 34 3e 86 f1 97 3e
       -0.014463006 -0.15527895 0.17600968 0.29676455
000290 47 0b 39 be 19 05 16 3e c1 cf 35 be 7c 2f ab bc
       -0.18070708 0.14650382 -0.17755033 -0.020896666
0002a0 f1 9d 93 3e 0e d8 d2 bd 28 48 0c be 72 ea ef bd
       0.28831437 -0.102951154 -0.136994 -0.11714639
0002b0 14 51 37 bf cc 4c 7e be f8 98 f8 be 6a 57 61 3d
       -0.7160809 -0.24833983 -0.48554206 0.055015005
0002c0 d6 b2 7d 3e ad 49 91 be b8 a7 66 3e 88 69 a9 3e
       0.24775252 -0.28376523 0.22524917 0.33088326
0002d0 46 9e 3a bc e8 2a fa 3e 65 46 44 3e 1b cb 48 be
       -0.011390274 0.4886086 0.19167478 -0.19608729
0002e0 52 25 0d 3e 18 1b 39 bf c1 82 7f be b7 39 9a be
       0.13783768 -0.72306967 -0.24952222 -0.30122158
0002f0 09 b4 8d bd 82 7d 91 3e f6 7d 5d be 9c bd f9 3d
       -0.069191046 0.28416067 -0.21630082 0.12194368
000300 4a 54 54 bd 92 bf e5 3d 3c 8c bd 3e 4b 58 9d 3e
       -0.051838197 0.1121818 0.37021053 0.30731425
000310 64 55 88 be aa ac fc bc 03 9e 22 bf 58 8f 5f 3b
       -0.26627648 -0.030844051 -0.63522357 0.003411254
000320 6e 03 3d be 6c ca 88 3c fc b4 b1 3e f4 fc a6 bd
       -0.1845834 0.016698085 0.34708393 -0.08153716
000330 a1 f5 e4 bc 20 5f 85 3e 2a d9 48 3e 6d 9b 09 3f
       -0.027949156 0.26049137 0.19614092 0.53752786
000340 8e 1c 9e be 1a d0 9e bd 23 56 dd 3c 57 25 27 bf
       -0.3088116 -0.07754536 0.027018612 -0.6529135
000350 df 82 21 be ef ef da be 89 ca 2b 3e 80 58 ec bd
       -0.1577258 -0.4276118 0.1677648 -0.115403175
000360 67 7e 24 be 92 e2 8c be 84 01 3e 3d bd cc 6e 3e
       -0.16063844 -0.2751661 0.046388164 0.23320289
000370 82 d1 9f 3e b0 9f 9b 3d 0e 2b 50 be 8b 4b 22 3d
       0.3121453 0.07598817 -0.20328924 0.039622825
000380 be e2 75 3e bc 08 6d be 19 a2 47 be ba 46 6b 3d
       0.24012277 -0.23147863 -0.19495429 0.057440497
000390 ab 03 a2 bd a0 32 59 be 13 dd 5e 3e e9 a9 e1 bd
       -0.07910856 -0.21210718 0.2176402 -0.11018736
0003a0 88 86 85 be 94 63 50 3d 1b b6 35 be a7 e8 92 bd
       -0.26079202 0.050876215 -0.17745249 -0.07173281
0003b0 2d da 92 be 9c a2 91 3f b7 da 1c be de 47 c9 3e
       -0.2868208 1.137775 -0.15317808 0.39312643
0003c0 e3 c4 35 be c2 c4 0e bf 64 b0 93 3e c8 d1 d2 3c
       -0.17750888 -0.5576898 0.28845513 0.025734797
0003d0 43 db 38 be 71 e9 4d 3d 5c 3f 47 bf e2 5a cd bd
       -0.18052392 0.050271455 -0.77831054 -0.100271
0003e0 c5 b1 0a be bc 9b 2f 3e 18 94 26 3e be 2f 3a 3e
       -0.13544376 0.17149252 0.16267431 0.18182275
0003f0 88 e2 ca 3d b1 e1 80 3e 2b 89 80 3e d0 98 2b 3d
       0.09906489 0.2517219 0.2510465 0.04189378

model.0.bias f4 [64]
000000 e4 2f bf bc f2 10 4b be 31 79 70 3e 32 da 49 be
       -0.023338266 -0.19830683 0.23483731 -0.19712141
000010 d1 ab 31 3e 9c 00 9a 3d 5c b0 91 3e 65 2e 82 3e
       0.17350699 0.075196475 0.28454864 0.2542602
000020 ea 8b 43 be d4 c2 50 be f4 8c 1b 3e bd 4b e4 bc
       -0.19096342 -0.20386821 0.15190488 -0.027868146
000030 74 9a 44 be ae 14 21 3e 30 b3 9c 3d 40 3c 14 3d
       -0.19199544 0.15730545 0.07651365 0.03619027
000040 22 c0 63 3e 24 94 3d be c9 75 e0 bd 24 7e a2 3d
       0.22241262 -0.18513542 -0.10959966 0.07934216
000050 80 f2 a5 3c c1 fd 56 be c3 ae 68 bd 9c c2 a7 bd
       0.020257235 -0.20995237 -0.05680729 -0.08191416
000060 f7 dd ca 3b a5 41 9d bd dd 24 82 3e a2 2a 12 3e
       0.006191011 -0.07678536 0.2541875 0.14274076
000070 e9 87 44 be 7a 97 e7 bc a6 38 cd bd 51 ca 0b bd
       -0.1919247 -0.028270472 -0.100205705 -0.03412849
000080 40 7e b5 bb e4 ef 4f be 8b d3 03 be d3 fc 3b 3d
       -0.005538732 -0.20306355 -0.12873666 0.04589541
000090 85 9d f6 bd 04 f0 32 bd c6 6c 83 bd 40 f6 f2 bb
       -0.12041763 -0.043685928 -0.06417231 -0.007414609
0000a0 19 ed 6b be ec c9 8e be 78 06 35 be 13 dc 2d be
       -0.23039664 -0.2788843 -0.17678249 -0.16978483
0000b0 bf 3e ab bd 21 6a 8b 3e 30 fc 62 3e ec 63 a5 3d
       -0.08361577 0.27229407 0.22166514 0.08075699
0000c0 33 0b 9e 3d e0 42 ca bc d2 c5 86 bd 50 72 db bd
       0.0771698 -0.024690092 -0.065807 -0.10715163
0000d0 78 e2 17 3d 20 cb 48 bd 44 8e ee bd 1c d4 11 3e
       0.03708121 -0.04902184 -0.11648229 0.1424107
0000e0 70 bd 25 bd 3f d9 af 3e 0c db 3b be 86 94 46 3e
       -0.040463865 0.34345433 -0.18345279 0.19392595
0000f0 76 bc a2 bd d7 3b 3a 3d 80 fc 2c bc 0b 4d 1a be
       -0.07946102 0.045467224 -0.010558248 -0.15068452

model.2.weight f4 [32, 64]
000000 2a d7 f3 3d d8 50 77 3d ec c3 0b 3d 72 20 be bd
       0.11906274 0.060379833 0.034122393 -0.09283532
000010 6c ae 79 3d 00 72 e2 bc 24 58 d2 bd 38 8f 90 3d
       0.060957357 -0.02764225 -0.10270718 0.07058567
000020 b0 db d5 3c 08 ef 67 bd 98 6c f7 bd ea 22 ee bd
       0.026105732 -0.056624442 -0.120812595 -0.11627753
000030 f4 7f 5c bd 14 fe 6c bd 98 d2 3f bd 90 8b 35 3d
       -0.053832963 -0.057859495 -0.046831697 0.04432255
000040 58 4b ac 3d 80 2c 45 bb 60 ca f1 bd 84 4d 09 3d
       0.08412808 -0.0030086339 -0.11806178 0.03352119
000050 82 36 bd bd 46 33 d0 bd f0 f6 e5 3c 20 ec fb bd
       -0.09238912 -0.1016603 0.02807185 -0.12300897
000060 c4 5e e7 3d 00 13 2e 3d 0c 56 82 bd 14 8e 50 3d
       0.11297372 0.04249859 -0.063640684 0.050916746
000070 32 6f 8c 3d d0 45 58 bc 04 b7 5b bd d6 86 c3 bd
       0.06857146 -0.013200238 -0.053641334 -0.09547202
000080 64 5c 59 3d 3a 5c c5 bd 98 44 c1 3d ee 20 c7 3d
       0.053066626 -0.096367314 0.09436911 0.09723078
000090 00 9c 6e 39 40 83 68 3c b8 f7 c7 bd e0 4b 09 3c
       0.00022755563 0.014191449 -0.097640455 0.008379906
0000a0 ec d0 06 bd b0 cd f4 3d e6 d8 ce bd 08 b3 2f 3d
       -0.032914087 0.11953294 -0.10099964 0.042895347
0000b0 4e 93 97 bd 60 c2 c9 bc 3a a0 e4 3d 0a 67 c2 bd
       -0.07401143 -0.024628818 0.11163373 -0.094923094
0000c0 2c f5 d6 3d c6 50 f7 3d 70 59 9f 3c 0c 7d ba 3d
       0.104959816 0.12075953 0.019451827 0.09105882
0000d0 8c 20 ec 3d 18 ff 64 3d 40 e8 37 3c 6a 09 cc bd
       0.11529645 0.05590734 0.011224806 -0.09962733
0000e0 a0 c9 d9 3d e0 56 13 3d e0 5c 44 bc 40 f0 d4 3c
       0.1063416 0.035971522 -0.011985034 0.025993466
0000f0 b6 6a d4 bd 00 83 99 3b 8a d6 e4 bd d0 2c 29 bc
       -0.10371916 0.004684806 -0.111737326 -0.010325626
000100 f0 45 de bc 3c 7e d7 3d ac d4 f0 bd a6 5b d0 bd
       -0.027132958 0.10522124 -0.11759314 -0.101737306
000110 40 c3 d8 3c 24 ad 4a bd aa ed bc bd dc e5 a2 bd
       0.02646029 -0.049481526 -0.09225018 -0.079539984
000120 c4 b3 23 3d 74 9a 3a bd dc dc 62 bd c0 f5 98 bc
       0.03996636 -0.045557454 -0.05538641 -0.01867187
000130 3c 1f 0a bd 52 8d a4 bd aa 40 a5 bd a4 41 04 3d
       -0.033721194 -0.08034767 -0.08068974 0.032289162
000140 5a 04 9e 3d fa a2 bf 3d c6 61 e2 3d 14 09 cd 3d
       0.07715674 0.09357257 0.11053805 0.10011497
000150 58 8c b2 3c 00 6c be 3d e0 e4 4c 3c e8 2a f3 3c
       0.021795437 0.09297943 0.01250574 0.029683545
000160 f6 ea af bd 66 e3 cf 3d 02 67 9b 3d 4c 29 31 bd
       -0.08589737 0.10150795 0.075880066 -0.043252274
000170 dc 05 03 3d 00 68 4b 3d 24 72 78 bd dc f8 29 3d
       0.03198801 0.04965973 -0.060655728 0.041497096
000180 10 fe a4 3c 80 f7 81 bc 00 9d 3f 3d 48 6e f5 bd
       0.020140678 -0.015865088 0.046780586 -0.11983925
000190 90 f4 8b bc a0 bf 22 3c f8 ce 1d bd fc ae f5 bd
       -0.01708439 0.009933382 -0.03852746 -0.11996266
0001a0 6c fb 0a bd d2 5a ea bd 98 9e 0a 3d 24 2a 52 bd
       -0.03393118 -0.11443104 0.033842653 -0.05130972
0001b0 68 38 aa bc 5c 08 73 bd 08 23 20 bd 1c 54 46 3d
       -0.02077885 -0.059334144 -0.03909591 0.048420057
0001c0 0c 2c 83 bd 5c fb a8 3d 3c 05 00 bd f8 1f 23 3d
       -0.06404886 0.08251068 -0.031254992 0.03982541
0001d0 f0 df 9e 3c 3c d8 ca 3d 10 3e 47 3c 88 0a 09 3d
       0.019393891 0.09904525 0.012160793 0.03345731
0001e0 5a f5 94 bd 18 5a c5 bc 6c 82 53 bd bc f4 25 bd
       -0.072733596 -0.024090812 -0.051638052 -0.0405166
0001f0 e2 33 d5 3d a4 84 d5 bd 40 48 5d 3c 60 54 e7 3c
       0.104102865 -0.1042569 0.013505995 0.028238475
000200 b9 9e 20 bc f6 aa e8 bc 2c 42 eb bc 16 d9 59 3c
       -0.009803467 -0.028401833 -0.028718077 0.013296386
000210 88 55 d8 3d 74 a5 2d 3d 62 98 02 be fd 6f 95 3d
       0.10563189 0.042394117 -0.12753442 0.07296751
000220 60 26 6c 3c 57 81 ff bd c4 d8 c4 3d 2b 3e 58 3d
       0.014413446 -0.124758415 0.09611657 0.052793663
000230 dc 7e 9d 3d 5d 19 a9 bc db 72 c9 3d 48 84 d9 bd
       0.07690212 -0.020641977 0.0983636 -0.10620934
000240 f2 f0 8c 3d 77 09 db bd 0a 9f 00 be c0 dd 16 bb
       0.06881894 -0.10695165 -0.12560669 -0.0023020357
000250 e0 a5 92 3b 15 d3 1f bd ae 25 66 3d f2 33 96 bd
       0.0044753402 -0.039019663 0.056188278 -0.073341265
000260 18 22 a3 bd 39 77 c8 bc 9a 2f d4 bd 70 46 83 bc
       -0.07965487 -0.024470912 -0.10360642 -0.016024798
000270 e1 d8 6b 3d ba 93 31 3d 39 2b b2 3d bf 46 9f bd
       0.05757988 0.043353774 0.0869965 -0.077771656
000280 00 1f a1 bb 84 f2 ac 3d fa 6d 3b bc 91 8d 84 3c
       -0.0049170256 0.08444694 -0.011439795 0.016180785
000290 3b a3 75 3c 1c 9b 50 3d 19 49 92 bc 5e 11 fa bd
       0.01499253 0.050929174 -0.017857121 -0.12210344
0002a0 9f 21 e8 bc a0 ff 5b 3d e6 ee b1 3d 18 c8 ac 3c
       -0.028336344 0.05371058 0.086881444 0.021091506
0002b0 d0 ba ae 3d f0 1f c9 bd b1 cc d4 3d 60 c4 b4 bc
       0.085317254 -0.09820545 0.10390604 -0.022066295
0002c0 e3 63 a2 bd 74 fb e0 3d 6a 82 80 3a 51 81 cb 3d
       -0.07929208 0.10985461 0.0009804491 0.099367745
0002d0 e6 25 a4 bd 92 67 95 3d 8a 66 0c be 50 c6 d1 bd
       -0.08015041 0.07295145 -0.1371099 -0.10242903
0002e0 86 14 87 3d 55 7d 40 3d 88 b1 b9 3c 88 f5 9f bd
       0.065957114 0.046994526 0.022667661 -0.07810503
0002f0 15 6e 4a bd 0b ed 2e bd 64 14 a6 bd 4a 95 e6 3c
       -0.04942139 -0.04270653 -0.08109358 0.028147358
000300 91 f0 f1 3c 25 0c fb bc 1c f4 85 3d db 99 3d 3d
       0.029533656 -0.03064544 0.06540701 0.046289306
000310 e0 14 2c bd de 1e 8a bd 94 d1 7a 3d 80 f3 cc 3c
       -0.042012095 -0.06744169 0.061235026 0.025018454
000320 80 a2 8f 3a 8b 1b 09 3c 84 72 95 bd 1a 35 b3 bc
       0.0010958463 0.008368383 -0.07297233 -0.021875907
000330 f1 3e 59 3d 5a 75 3a 3d 07 b0 8c bd 55 0f 9e bd
       0.05303854 0.04552207 -0.06869512 -0.07717768
000340 14 2a 13 3c 28 63 c9 bd 27 6b 6d bd f0 0a 38 3c
       0.0089822 -0.09833366 -0.057963517 0.011233076
000350 de 4a 97 3d 07 51 2e 3a 58 51 dc bd 64 34 77 bd
       0.07387327 0.0006649647 -0.107577026 -0.060352698
000360 b2 90 db bd 91 ca e0 bd a9 52 a5 3d 44 7f e1 3d
       -0.10720958 -0.109761365 0.08072407 0.11010602
000370 60 1e 03 bc d8 f7 4e bd 27 49 0c 3e 90 0d 7f bd
       -0.008002847 -0.05052933 0.1369978 -0.062268794
000380 64 72 26 bd 38 a3 86 bc da f9 5f bd 66 06 2e 3d
       -0.040636435 -0.01643525 -0.054681636 0.04248657
000390 c5 f3 cf bd d6 23 9f bd 58 dc 71 bc 52 cc da bd
       -0.10153917 -0.07770507 -0.014762007 -0.10683502
0003a0 09 54 90 bd 0e 6e b6 bd 4c 84 bd bd d8 70 cb bd
       -0.070472784 -0.0890771 -0.09253749 -0.099336326
0003b0 00 81 6b 3d 72 20 c5 bd 4e 25 db bb e0 4b d4 3b
       0.05749607 -0.09625329 -0.0066877967 0.0064787716
0003c0 10 1a d3 3c b8 fb a4 3d d2 54 c8 3d d8 a5 2c 3a
       0.025769264 0.08055824 0.09781803 0.0006585992
0003d0 90 82 e6 bd d8 ef cd bd 83 e5 aa 3d 60 19 63 bd
       -0.112553716 -0.10055512 0.08344557 -0.05544412
0003e0 14 cd 1b 3d 6c 2d 1c bd 56 39 d1 3d ea de 81 bd
       0.038037375 -0.038129255 0.10216014 -0.063413456
0003f0 f5 f0 6c 3d 6c 05 e9 ba 98 2c 47 bd 8d 56 a1 3d
       0.057846982 -0.0017778105 -0.048626512 0.078778364

model.2.bias f4 [32]
000000 c4 c4 5e 3d 00 72 47 3b cc fd 5a bc 18 c6 a6 bb
       0.05438687 0.003043294 -0.013366174 -0.0050895326
000010 f0 ed 5e 3c 0f 9e 09 be f2 de 21 3e 28 37 a5 bc
       0.013606533 -0.13439201 0.15807703 -0.020167902
000020 f8 7c a4 3c f0 79 ac 3d 2b c8 d2 3d 24 b0 15 bd
       0.020079121 0.08421695 0.10292085 -0.036544934
000030 7c da 8d bd f8 7b db 3d 63 21 12 bc 12 8a 82 bd
       -0.06926438 0.107170045 -0.008919093 -0.06373991
000040 e0 c6 8e 3d 00 8b e2 bd 5b 4f 8b bd ab f6 b4 3d
       0.06971526 -0.110616684 -0.06802245 0.08836111
000050 4e 2e c7 3d 96 1a 2d 3e d8 f0 3a bd 46 54 c5 3d
       0.09725629 0.16904673 -0.045639843 0.096352145
000060 72 ba bd bd 15 83 49 be e0 45 e2 bc 3e 3c 3e 3d
       -0.09264077 -0.1967891 -0.02762121 0.04644417
000070 e5 71 31 bd 78 f2 c9 3d 92 c3 54 3e 04 11 1f be
       -0.04332151 0.098607 0.20777729 -0.15533835

model.4.weight f4 [1, 32]
000000 99 a8 0f 3e ee 8e dd 3d 68 a7 e4 bc 3c aa 07 bd
       0.14029159 0.10818277 -0.027911857 -0.033121333
000010 71 14 30 3e 13 01 83 bd fd ae 6f 3d 91 a2 e8 3d
       0.17195298 -0.06396689 0.05851649 0.11359132
000020 af 2b f3 bc 8c 0d 7a 3d c5 32 af bd e1 6e 0e 3e
       -0.029683916 0.061048076 -0.085546054 0.13909484
000030 74 08 29 be ef c5 28 be f3 c0 fc 3d f0 cd 78 bc
       -0.16507131 -0.16481756 0.1234149 -0.015185818
000040 f3 98 34 3e 3d 92 9e bd b5 23 1c be 4f 1c 13 3e
       0.1763647 -0.077427365 -0.15247996 0.14366268
000050 00 19 9f 3e 6f 80 b6 3e 4c 64 ad 3d 65 2a 8d bd
       0.3107376 0.35644862 0.08466396 -0.06892852
000060 98 4d 4e 3b 3a ed cc bd 8a 65 b3 3d 68 a1 df bd
       0.0031479355 -0.10006185 0.087596014 -0.10919458
000070 94 f3 22 be 48 bc b3 bc 8e 9e 37 3d 87 03 fe bd
       -0.1591323 -0.021940365 0.044828944 -0.124030165
